flat_ckpt/0000/policy_16800_cpu.pt (torch, 281247 bytes, 12 tensors)

weight f4 [256, 19]
000000 f7 d9 ac be 61 4f 4e be db 38 85 3d 5f 31 02 3d
       -0.33760044 -0.20147468 0.06504985 0.031785365
000010 f9 15 f5 bd 73 34 9d 3e e5 3f 0e 3e 9e da 2c bd
       -0.119670816 0.30704078 0.13891561 -0.042200677
000020 c4 18 92 3e e4 5b 4d 3e cc d0 f0 3d ee 36 0d be
       0.2853452 0.20054585 0.11758575 -0.13790485
000030 f9 cb fd bd 5a 7b 7a 3e 09 d5 72 be b0 9e 41 bd
       -0.1239242 0.24461117 -0.23714079 -0.047270477
000040 a2 95 9c 3d 6b ea 11 3f 43 14 51 bf db ae ce bd
       0.07645728 0.5699832 -0.8167154 -0.10091945
000050 35 cc 34 bf 06 4f 81 3e cc 3b 9e bc cb 39 1f 3d
       -0.70624095 0.25255603 -0.019315623 0.038873475
000060 f9 e2 2d 3d 09 8c e2 3d b1 b3 8a be 69 5f 91 3d
       0.042452786 0.11061866 -0.2709022 0.07098276
000070 31 1a 05 3e 54 ec b1 3e 29 7b e3 bc 10 67 01 be
       0.12998272 0.34750617 -0.027768688 -0.12636971
000080 c3 0d 7d 3e e1 fe 1a 3e c6 28 4c bd 61 25 a6 3c
       0.24712281 0.15136291 -0.049843572 0.020281496
000090 11 9a 8a bd 4a b8 1b 3f 8e 7c d6 3d e1 7a c5 3d
       -0.06767667 0.6082808 0.10472976 0.09642578
0000a0 12 8e 86 be e7 fc a5 be ed df 58 3e 07 8a f4 3c
       -0.26280266 -0.32419512 0.21179171 0.029850973
0000b0 d3 f6 ed bd 00 fe 69 3d 59 6b d8 bc ee 0f ab 3d
       -0.116193436 0.057127 -0.026418375 0.08352648
0000c0 ab a6 21 bc 39 f1 8e 3e cd df a2 3d d5 13 fd 3d
       -0.009866397 0.27918413 0.07952843 0.12357298
0000d0 5c ff 42 3e a1 1c 7e bc 87 80 ff be 15 16 7a be
       0.19042724 -0.015509755 -0.49902746 -0.24422486
0000e0 37 d8 de be 77 c0 e6 bd 85 9a ec 3c ba 44 90 be
       -0.43524334 -0.112671785 0.028882274 -0.28177434
0000f0 93 2c 58 3e 91 4c 1c 3e e0 4e 15 be fb 3a 15 3d
       0.21110754 0.15263583 -0.1458087 0.0364332
000100 ab ea 14 be b5 3f 93 bd 85 7c 84 bd 0d 74 45 be
       -0.14542644 -0.071898855 -0.06469063 -0.19282551
000110 be d9 89 be 98 c7 46 3d e6 90 50 be d8 c1 9f 3e
       -0.26923937 0.04853019 -0.20367774 0.3120258
000120 07 25 aa bd 92 4a e8 be 3e 55 81 be 11 ca 37 3e
       -0.08307844 -0.45369393 -0.25260347 0.17948176
000130 60 79 33 be 43 b1 9a be 3a a3 dd bd eb 7a 36 bc
       -0.1752677 -0.30213365 -0.108221486 -0.011137704
000140 53 b1 5d be 46 72 bd 3d 37 4b 85 3c 99 4d 82 bd
       -0.21649675 0.092503116 0.016271217 -0.06362457
000150 c5 51 0f be d8 4c ef bd b1 03 d3 3d 0b 75 aa bc
       -0.13996036 -0.11684579 0.103034385 -0.020807764
000160 32 a2 36 be 0e e8 34 3c b8 de 03 3a 81 d0 4a bd
       -0.1783531 0.011041654 0.0005030441 -0.04951525
000170 88 8f 7f bf 7d 9f 24 bb 01 79 0e bd d9 24 3b be
       -0.99828386 -0.0025119476 -0.034783367 -0.18275775
000180 d7 e0 42 bf 79 2c 08 3f 0c 86 8e 3a 67 ca 62 bd
       -0.7612433 0.5319286 0.0010873689 -0.055368807
000190 c9 2a 98 bd 6e c8 51 3e b9 50 25 be dd 9d 87 bd
       -0.074300356 0.20486614 -0.16144074 -0.06621907
0001a0 ac 28 59 bd b9 1d f7 bd 23 59 54 3d 3c 6d 0e be
       -0.053017303 -0.12066216 0.05184282 -0.13908857
0001b0 81 41 5f bd 38 cd 11 be 75 27 57 3e 77 cb 45 be
       -0.05450583 -0.14238441 0.21011145 -0.19315897
0001c0 c4 38 72 be c8 03 04 3f 04 95 d4 3d 58 6e 90 be
       -0.23654467 0.5156827 0.10379985 -0.28209186
0001d0 3f 1f b3 be 6c d7 ae be 33 87 3f 3e 1d 4e 88 3d
       -0.34984776 -0.3414873 0.18703918 0.06655524
0001e0 6b a9 08 be fc 1c 82 3d 7c b2 e0 bc 35 fd b1 ba
       -0.13345878 0.063531846 -0.027428858 -0.001357949
0001f0 3d 73 43 be 5f 6d f5 3d 7a 85 ef 3d 2e 80 29 ba
       -0.19086929 0.119837515 0.116953805 -0.00064659386
000200 d1 4e 46 3e cc a7 60 3d 9e 99 e8 bd b7 67 0f bf
       0.19366004 0.054847524 -0.11357425 -0.5601763
000210 fc 99 6d be b1 5d 93 3e 56 ff 86 be b5 b0 66 3e
       -0.23203272 0.28782418 -0.2636668 0.22528346
000220 a0 87 b5 bd 6b e9 d8 3c 65 c1 2d 3e 50 f5 64 3c
       -0.08863759 0.02647849 0.16968305 0.013974503
000230 d0 59 ae 3c 4a d2 c4 3d 7a 98 b9 3e ac c9 e8 be
       0.02128306 0.09610422 0.36249143 -0.45466363
000240 cc c8 38 3e a6 6d 87 3d d1 63 48 3e 9b d7 06 bb
       0.18045348 0.06612711 0.19569327 -0.0020575288
000250 15 6b ff bd e1 34 12 be 37 ee 08 3e 10 c3 24 bf
       -0.12471596 -0.14277984 0.13372122 -0.6436014
000260 cb 04 ef bd 6f 0c 4b 3e 4f 6c f9 3d 33 11 2c 3d
       -0.11670836 0.19828962 0.12178861 0.04200859
000270 b7 a0 23 be f1 2c 9e 3e 00 9d 45 bd b0 c1 de 3d
       -0.15979277 0.30893663 -0.04824543 0.10876787
000280 f3 34 92 be c5 fa 66 3e 3b 42 61 be 49 8e fa 3c
       -0.28556022 0.22556598 -0.21997921 0.030585425
000290 4e c5 8e be 0e 45 8e be 56 02 07 be 63 e1 2b be
       -0.27884907 -0.2778706 -0.13184485 -0.16785197
0002a0 98 f7 b8 bc 8a bf 15 3e a5 2a 14 bf 63 21 f5 3d
       -0.022579 0.14623848 -0.5787757 0.11969259
0002b0 31 d4 9f 3d 78 8a 3a 3f 43 6a 84 bd de f4 1b bd
       0.07804144 0.72867537 -0.0646558 -0.03807532
0002c0 4d 7e f0 b8 47 8f d4 3d cd 37 3a 3e 1f c3 b1 bd
       -0.00011467617 0.103788905 0.18185349 -0.086797945
0002d0 51 85 85 3e 6b 43 10 be 2a 7b 11 be 03 2a 10 3e
       0.26078275 -0.14088218 -0.1420714 0.14078526
0002e0 c9 48 aa 3c 18 19 f7 3d ac 62 f0 3d b3 bd 93 bc
       0.02078666 0.12065333 0.1173757 -0.018034792
0002f0 9a 58 d6 3e 28 54 53 3e 14 a7 b5 3e 1e 51 2f 3f
       0.41864473 0.20637572 0.35479033 0.6848315
000300 fe fa c9 3d 78 bf 58 bd 03 e9 a4 bd 52 ea 9b 3c
       0.09862326 -0.052916974 -0.08052256 0.019032631
000310 21 0e bb 3d c0 fa 66 3e 30 fb c1 3d 66 82 7f be
       0.09133554 0.22556591 0.09471738 -0.24952087
000320 2a 57 29 3e 09 8b e6 bd 51 13 3a be 33 03 08 3e
       0.16537157 -0.112569876 -0.18171431 0.1328247
000330 19 ee 00 3e 3e f7 dd bd 4d be 7d bc a5 ff e1 bc
       0.12590827 -0.10838173 -0.015487266 -0.027587721
000340 18 05 32 be 66 d2 49 3e 8c eb 0a bd 12 fe 7a be
       -0.17384756 0.19709167 -0.03391604 -0.24510983
000350 96 7b ea 3b 9a 58 4d 3e 72 64 8e 3d 5a 23 e4 3d
       0.007155846 0.2005333 0.06952752 0.11139555
000360 16 a5 f6 bd 86 0d a6 3d 8c 54 bb bc 09 ca c8 bd
       -0.120432064 0.08108048 -0.022867464 -0.0980416
000370 cc a0 37 be 5a 33 c4 bd 54 2d 00 3e 57 08 8a 3a
       -0.17932433 -0.09580107 0.12517291 0.001053105
000380 fa 99 29 3e 6e e0 81 3e bb af 75 be 7b bf 11 be
       0.16562644 0.2536654 -0.23992817 -0.142332
000390 e0 03 cd bd 9b e0 b7 3d 43 ba d3 be 20 83 cd bd
       -0.10010505 0.08978387 -0.41353044 -0.10034776
0003a0 38 7a 89 3d d2 f1 20 be 34 a0 59 3d 04 74 56 b9
       0.067127645 -0.15717247 0.053131297 -0.0002045185
0003b0 f5 95 89 3d 16 ba 5c be d6 63 af 3d 49 d2 22 bc
       0.06718055 -0.21555361 0.08563964 -0.009937831
0003c0 a7 24 91 bd c6 2f 6b ba 07 13 b8 bd 44 03 a1 be
       -0.07087069 -0.00089716574 -0.08988004 -0.31447804
0003d0 1c 7d e5 3d 03 8e 79 be 9c e9 00 be 78 ef 87 3e
       0.11205503 -0.2437058 -0.12589115 0.26549888
0003e0 cc cb 97 3c a5 21 33 3f c6 4b e6 bd fc d8 08 be
       0.018529795 0.6997321 -0.112449214 -0.13364023
0003f0 25 b2 de 3c 1c ea 2a 3d 2b 0c b7 3d f7 64 09 3e
       0.027184555 0.04172717 0.08937868 0.13417421

bias f4 [256]
000000 6d 44 60 3c 0c a0 bc be 61 24 20 bf 39 a3 a2 bb
       0.013688189 -0.36840856 -0.6255551 -0.0049633053
000010 73 c5 28 3f 07 6e 05 bf e9 8c 27 bf 10 26 55 be
       0.65926284 -0.52121013 -0.65449387 -0.20815301
000020 a9 28 2c bf d3 ba ce be 70 0a f0 be 31 6e 44 3f
       -0.6724954 -0.4037691 -0.46882963 0.7673064
000030 b6 bc 4b bf 9b 4a 56 be 8d 10 93 be a9 81 b0 3e
       -0.79584825 -0.20926897 -0.28723565 0.34473923
000040 25 c1 08 3f 9b 43 5c bf 9d aa 1d bf eb 2d 11 bf
       0.53419715 -0.8604066 -0.6158846 -0.5671069
000050 f6 41 1e bf 90 8b bc 3e 03 66 9d be e8 07 c5 be
       -0.618194 0.36825228 -0.3074189 -0.38482594
000060 c1 04 09 3e 16 df 10 bf a6 6b fd be ce 85 64 be
       0.1338072 -0.565904 -0.49496192 -0.22316667
000070 99 56 ad bd 2f 6e 1b bf f5 16 e9 bd 65 f9 79 be
       -0.08463783 -0.60715 -0.11381332 -0.24411543
000080 4f 25 b6 bd f2 32 61 3f e6 5b 18 bf 03 4a 4e bf
       -0.08893835 0.8796836 -0.59515226 -0.8058168
000090 11 a9 4e bf 0f 39 cd be 5a 22 7a 3e 16 f6 8d be
       -0.80726725 -0.40082595 0.24427167 -0.2772681
0000a0 85 bf 74 be 5a c3 2d be d4 32 6c 3e bc 11 2a bf
       -0.23901184 -0.16969052 0.23066264 -0.6643331
0000b0 3c 07 57 bf cf bd cd 3d a6 2c 54 be aa 5d b5 3d
       -0.83995414 0.10045969 -0.20720157 0.088557556
0000c0 b7 e7 8a bd b0 c6 f8 be 15 bf b6 be 09 4d 3d bf
       -0.06782477 -0.48589087 -0.3569266 -0.7394567
0000d0 a7 24 e3 be 4b 19 d7 be 60 81 24 3f 6c bd 2c 3f
       -0.443639 -0.42011485 0.6425991 0.67476535
0000e0 66 dc c5 3e f3 b1 ec 3e 14 f5 c3 be aa 39 3e be
       0.38644713 0.46229514 -0.38272917 -0.18576685
0000f0 17 41 49 3f ee 6e 09 bf 50 4c 0a 3f 09 b9 71 be
       0.78614944 -0.5368489 0.54022694 -0.23605742
000100 62 1b 1d 3f 7c a5 f3 be 09 52 0f bf 4d 16 93 be
       0.6136991 -0.47587192 -0.5598455 -0.28727952
000110 45 8b f3 be 2d dd ba bd ab 3c 23 3d 5e e4 f6 be
       -0.47567192 -0.09124217 0.03985278 -0.48221105
000120 f1 ba 1e bf cd 8d b8 be 11 38 2f be 77 26 88 be
       -0.62004 -0.36045685 -0.17111231 -0.26591846
000130 7e f5 85 3d 4c b4 38 3e c2 1b cc 3e 22 55 13 bf
       0.065409645 0.18037528 0.39864928 -0.5755178
000140 28 a1 3f bf 20 e8 2f 3f 91 f1 06 bf 66 46 03 bf
       -0.7485528 0.6871357 -0.5271235 -0.51279294
000150 e0 e4 71 3e 0c 49 1d bf c5 b0 bc 3e 75 a7 86 3e
       0.23622465 -0.61439586 0.36853614 0.26299635
000160 fb 0d 43 be 48 47 e6 bd d7 62 17 bf 77 9c f2 be
       -0.19048302 -0.112440646 -0.5913519 -0.47384998
000170 64 05 58 be 0d 7e 2a bf d0 17 49 bf 56 7a 44 3e
       -0.21095806 -0.6659859 -0.7855196 0.19187292
000180 a3 8d 98 be 2b 0f 6e be 16 c8 d8 3e f1 e3 ad be
       -0.2979556 -0.23247974 0.42340153 -0.33962968
000190 7e 1b ef 3c 87 36 36 3f f6 72 9c be 7f d9 0f bf
       0.029187914 0.7117695 -0.30556458 -0.5619125
0001a0 fa 4b 04 bf 63 d6 09 be 05 15 08 bf b2 78 b1 be
       -0.5167843 -0.13460688 -0.53157073 -0.34662396
0001b0 53 73 e7 be 7c ae 22 bf f4 d3 3b bf 35 a0 92 3d
       -0.45205173 -0.6354749 -0.7337029 0.07159463
0001c0 eb 50 d0 be 50 60 21 bf b7 a3 fc be 71 95 2b bf
       -0.40686736 -0.63037586 -0.49343655 -0.67024904
0001d0 43 f4 19 bf db a9 c2 3e 01 a7 10 bf 20 c5 d2 be
       -0.6013834 0.38020214 -0.5650483 -0.4116602
0001e0 e8 23 08 bf 45 79 ce be 91 2a 39 bf 4a 7e d7 3c
       -0.5317979 -0.40326896 -0.72330576 0.026305337
0001f0 35 00 88 be 2f 46 da be 8b 95 f6 be 71 56 79 be
       -0.26562658 -0.4263167 -0.48160967 -0.24349381
000200 60 85 1f be 80 84 3c be 8c 66 d1 be 05 97 07 bf
       -0.15578222 -0.1840992 -0.4089855 -0.5296481
000210 dd 8e 8a bd 58 54 ea 3d f9 7b 9b 3e 48 5e 13 be
       -0.0676553 0.114418685 0.3036802 -0.14391434
000220 e6 e5 5f 3e b3 d5 fa be 37 96 6e 3d b4 fb 47 3f
       0.21865043 -0.48991165 0.058248725 0.78118443
000230 35 0c c9 bc 8c 7a fa be db cd ab bd a8 61 cd be
       -0.024541954 -0.4892162 -0.08388873 -0.40113568
000240 bb e9 58 be e0 ca 01 3f e6 7b 9c bd 55 83 2d bf
       -0.21182911 0.5070019 -0.07640819 -0.6777852
000250 91 4e c8 be 14 01 ad 3e c7 a3 fa 3e 41 af cf be
       -0.3912244 0.33789885 0.48953077 -0.40563396
000260 02 90 4f 3e ce 89 61 3e 77 38 0d be 89 08 08 bf
       0.20269778 0.22025225 -0.13791071 -0.53138024
000270 fb 99 65 3f f3 44 ad be d3 91 ba bd 7f 31 a3 be
       0.8968808 -0.33841667 -0.09109845 -0.318737
000280 d0 e4 45 3f 00 87 2e bf f1 52 cf be ca 92 29 3f
       0.77302265 -0.68174744 -0.40492967 0.6623961
000290 b3 f9 cc be 85 a2 1b 3f 6b 85 03 bd 6e 13 0d 3f
       -0.40034255 0.6079486 -0.03210966 0.5510777
0002a0 10 af d1 3d 73 22 f8 3e 60 6b 13 3f 1b f9 51 be
       0.10238469 0.48463783 0.57585716 -0.20505182
0002b0 9a 3a 27 bf b1 2a e9 bd b9 8c 5c 3e d2 56 18 bf
       -0.65323794 -0.11385096 0.21538056 -0.5950748
0002c0 b2 d7 4d bd e1 d1 80 3e d1 2e 3a bf 32 47 8c be
       -0.05025453 0.25160125 -0.72727686 -0.27398068
0002d0 0a 46 83 be 5d 11 30 bf 3c 75 ce be e5 33 66 bc
       -0.25639373 -0.68776494 -0.40323818 -0.014050459
0002e0 71 3b 44 bf 6b a5 f0 3e df 76 3c 3f 48 06 16 bf
       -0.766532 0.47001204 0.7361888 -0.58603334
0002f0 6b 59 4c be ee 1f 5e be 27 c4 c4 bd e1 2c 9e 3e
       -0.19955985 -0.21691868 -0.096077256 0.30893615
000300 6e a6 38 3f fe 21 2d 3f 01 3a 09 bf a9 d3 21 be
       0.7212895 0.6762999 -0.5360413 -0.15803398
000310 c0 66 1d 3f 93 89 9c bf 0e f5 66 bd 3a 61 c5 3d
       0.6148491 -1.2229484 -0.056386046 0.09637685
000320 f3 e6 17 bf d6 ac 0e bf cc 71 63 be e6 2e 19 3f
       -0.59336776 -0.55732477 -0.22211379 0.59837186
000330 6d 6a f6 be cc e9 cf 3d e7 a1 3b 3f 37 9c 40 3f
       -0.4812807 0.10152015 0.7329392 0.75238365
000340 16 28 2d 3e af 27 66 bf 23 26 87 3d 36 2e 69 3e
       0.16909823 -0.899043 0.06599071 0.22771534
000350 78 c7 e1 bd 97 a5 3b bf 0e ac 20 bf 62 33 d1 bd
       -0.11024374 -0.73299545 -0.62762535 -0.102148786
000360 df ff 5a 3f fa b1 ae 3e fd 1a 0a 3f 2a 04 80 bd
       0.8554668 0.3412016 0.5394743 -0.06250794
000370 82 b0 b8 be db e7 c4 be 78 8e 0a bf 80 2b 45 be
       -0.36072165 -0.38458142 -0.5412364 -0.19254875
000380 d7 15 6b be 67 61 4c be f0 d7 ec 3e c7 3c a3 3e
       -0.2295755 -0.19959031 0.46258497 0.31882307
000390 e5 cb 33 3f 9e 79 aa 3e 0f e8 bd be b7 20 3f be
       0.70232993 0.33295912 -0.3709111 -0.18664823
0003a0 bf 01 46 3f 09 28 88 3e 2a 5f 01 bf 23 fe 3e bf
       0.77346414 0.26593044 -0.50535834 -0.7460653
0003b0 3e 79 af be 81 a7 4f 3f c7 30 1d bf 52 75 f4 be
       -0.34272188 0.81114966 -0.61402553 -0.47745758
0003c0 3d 5f 6c be 5e 89 5f 3b 3e 09 10 3f 27 66 c3 be
       -0.23083206 0.0034108977 0.562641 -0.38163874
0003d0 50 86 35 3f 94 fe aa 3e 6e ef 0f be 67 b2 c4 3e
       0.7090807 0.33397353 -0.14056179 0.3841736
0003e0 af 9c 24 bf eb 2d 1e be 36 db 62 bf d5 8c 64 3f
       -0.6430158 -0.15447204 -0.8861574 0.8927739
0003f0 ba 3b fb bd 90 2d 4d 3f 3f 3b b5 be b0 e7 d7 be
       -0.12267251 0.8014765 -0.35396764 -0.4216895

weight f4 [128, 256]
000000 bd d0 fc 3d 8e 83 29 be dd 8c c8 bd 46 52 96 3d
       0.12344501 -0.1655409 -0.097924925 0.07339911
000010 63 9a 79 bd 16 4c b1 be 85 eb 26 be 5e db 53 3e
       -0.06093825 -0.3462836 -0.16300781 0.2068915
000020 61 4c 87 3e 22 0a c6 be 7a 2c 04 3d f4 b3 1d 3e
       0.2642546 -0.38679606 0.03226898 0.15400678
000030 24 b3 50 3e cc 57 ec be 48 09 75 3d 50 bc 93 3b
       0.20380837 -0.46160734 0.059823304 0.0045085326
000040 50 84 28 3e 9b 1f f8 be c0 01 b4 3e 2f a3 ab be
       0.16456723 -0.48461613 0.35157585 -0.33522937
000050 5a c6 ea bc f3 95 f0 be 8f 98 fe 3c 98 e2 e0 be
       -0.028659035 -0.46989402 0.031078605 -0.43922877
000060 3d 57 a6 bd 22 01 19 3f de a2 8c 3e 42 ab 1b be
       -0.08122108 0.59767354 0.27468008 -0.15202048
000070 5a 16 c3 3e 44 ba c1 3d bf 57 ba be 6f e4 b2 be
       0.3810299 0.094593555 -0.3639507 -0.34939906
000080 96 13 ce be fb a6 e5 be 3e 58 93 3e d2 27 e1 3e
       -0.40249318 -0.44853958 0.2877826 0.43975693
000090 30 60 4f 3e a4 82 43 3d 12 c8 0b 3e d8 5a 77 bd
       0.20251536 0.04773201 0.1365054 -0.06038937
0000a0 c6 43 2a 3e 41 07 a4 bc 87 1a 05 bf f5 fd 86 be
       0.16627416 -0.02002299 -0.519936 -0.2636563
0000b0 3e f6 6f 3e 1a 86 81 3e 49 5f d3 bd 0c d5 2a 3e
       0.23433778 0.25297624 -0.103209086 0.16682833
0000c0 0f c3 11 be e5 50 d7 3d 11 3f 99 3e 1f 74 af be
       -0.14234565 0.10513476 0.29930928 -0.3426828
0000d0 00 77 80 3e 5e 5e 98 bd ef a4 a6 3d 9a db 30 bd
       0.2509079 -0.07439874 0.08136927 -0.04317818
0000e0 ca 91 90 be 69 d0 27 be f8 7e 3e be a0 9a 71 be
       -0.28236228 -0.16388096 -0.18603122 -0.23594141
0000f0 d9 25 5d 3e 78 b3 f6 3c 37 da cb bd 79 8c 0c 3d
       0.21596469 0.030114874 -0.099537306 0.034313653
000100 9b 2b b0 bd 8d 56 66 3e 2c 23 20 3e c0 42 49 be
       -0.08602067 0.22493954 0.15638417 -0.1965437
000110 17 60 86 bc 56 f2 15 be 72 a7 b5 bd fa 99 27 bf
       -0.016403241 -0.14643225 -0.08869828 -0.65469325
000120 35 1f a3 3e 64 cb f0 bc d4 22 95 be 95 06 72 be
       0.31859747 -0.02939386 -0.29128134 -0.23635323
000130 96 5e 51 3e 35 ba cf be b5 11 0b be e5 05 ad 3e
       0.20446238 -0.40571752 -0.13580973 0.3379356
000140 bb 1e 12 bf 18 13 7e bd a5 ca d9 3d be 7e d5 bd
       -0.5707814 -0.062029928 0.106343545 -0.10424565
000150 8f 01 a2 be 90 1c b2 bd cb 72 1e be f8 ff 87 3e
       -0.31641814 -0.08696854 -0.15473478 0.26562476
000160 26 df b0 be 95 ac e3 3d 55 68 20 bc c0 4d 5a 3e
       -0.3454525 0.11116902 -0.0097905 0.21318722
000170 b7 36 a5 be d0 2d 10 3e f2 10 4a 3e c9 b9 79 3d
       -0.32268307 0.14079976 0.19733027 0.060968194
000180 c3 12 9f 3c ba 3d f7 be 82 55 93 be 09 8e 10 3f
       0.019418126 -0.4828928 -0.28776175 0.5646673
000190 30 27 07 be d2 f5 9f be 5c 16 91 be f3 a3 3b 3e
       -0.13198543 -0.31242234 -0.2833737 0.1832426
0001a0 92 76 44 be a9 4f 15 be 02 cc 9a bd 54 d2 f3 3e
       -0.19185856 -0.14581169 -0.07558443 0.47621405
0001b0 8c 22 d4 3d 78 7e ab be 97 83 91 be ed 90 78 3e
       0.10358152 -0.33494925 -0.28420708 0.24274035
0001c0 74 2a 66 bd 57 4a 48 3d d7 a9 5a be ba 90 aa be
       -0.05619283 0.04889902 -0.21353851 -0.33313543
0001d0 8a ee e9 bd 27 55 01 bf ef 4c 8e 3d 3f bf 1b 3e
       -0.11422451 -0.5052056 0.06948268 0.15209673
0001e0 9d 9e 77 bc f5 b0 76 3e 68 0d 92 be 0c 96 44 be
       -0.0151135 0.24090941 -0.28525853 -0.19197863
0001f0 84 88 a4 bc 26 4b c0 3d 77 10 59 be 69 81 d5 be
       -0.020084627 0.093893334 -0.21197687 -0.41700295
000200 01 80 45 3e d1 fe 4d 3d cd b8 29 bf 0b f3 ac be
       0.19287111 0.05029184 -0.6629761 -0.33779177
000210 d9 80 3b be 6e 4b 28 be 36 77 0c bf 78 60 d6 bd
       -0.1831087 -0.16435024 -0.548694 -0.10467619
000220 64 04 a7 3c be d8 0d 3e e8 7b 13 be 95 d4 e5 be
       0.020387836 0.13852212 -0.14402735 -0.4488875
000230 f0 ce a4 bb 73 66 8b 3e 12 b0 23 3e e0 94 eb 3e
       -0.0050295517 0.272266 0.15985134 0.4601202
000240 b5 62 4a bd be b1 20 bf cf 04 a0 3e c3 b7 a7 be
       -0.04941054 -0.62771213 0.3125367 -0.32757387
000250 76 b6 70 be aa a6 8c 3d cf 48 a4 be a8 8e cc be
       -0.23507103 0.06867726 -0.320868 -0.39952588
000260 df 00 90 be 8e 02 8a 3d 98 6c 8f 3e f5 6d fc 3c
       -0.28125665 0.067387685 0.28012538 0.03081415
000270 6b bb 02 3e 93 e6 13 be 6c 48 01 bf fb 08 7d 3e
       0.12766807 -0.14443426 -0.5050113 0.24710457
000280 fa b0 de bb 89 3a e8 bc 2e b9 85 be ce 6d 1f be
       -0.0067959996 -0.028348224 -0.26117843 -0.15569231
000290 7c 75 0e be 3b 2b d1 be 23 8a 94 3d 71 f1 7a 3e
       -0.13912004 -0.40853295 0.0725291 0.24506165
0002a0 3c 79 94 3d c3 33 08 bd 92 5e 08 bf f4 df 74 be
       0.07249686 -0.03325249 -0.532693 -0.23913556
0002b0 10 91 7c be d0 ff 5d 3e 5b d8 ee 3b 82 2f 9e be
       -0.24664712 0.21679616 0.007288975 -0.3089562
0002c0 c0 4c cc be 37 7c 98 bb 1c a1 85 3c 17 29 d0 3e
       -0.39902306 -0.0046534794 0.016312174 0.4065635
0002d0 a3 37 e8 be f9 44 3d be 11 15 25 bd 2d 60 0e be
       -0.45354947 -0.18483342 -0.040303294 -0.13903876
0002e0 6d 04 9b ba 4d ee 1f 3d a1 a7 29 bf a5 56 dc 3d
       -0.001182688 0.03904562 -0.66271406 0.10758714
0002f0 7f dd b8 3e e9 fe b7 3d b4 6f 11 3e c9 be 2d be
       0.36106488 0.08984167 0.14202768 -0.1696731
000300 7a 7a 81 bd 0a 1c b5 be d2 84 c7 3e 9a 15 9f bd
       -0.06322189 -0.35372955 0.3896852 -0.07767792
000310 c7 a0 4b 3e 65 63 84 be 15 de 23 be 29 b5 aa bd
       0.1988555 -0.25857082 -0.16002686 -0.08335335
000320 48 42 1d 3e 76 8a 2c 3e 85 d9 16 bd e2 77 fd bd
       0.15357316 0.16849694 -0.036828537 -0.123763815
000330 59 65 e3 3e de 54 3f be 97 f6 9e be 7d 0e 39 3c
       0.4441326 -0.18684718 -0.31047508 0.011294958
000340 81 7f a1 be a2 0a 7c be 18 34 28 be 62 6e 03 3e
       -0.3154259 -0.24613431 -0.16426122 0.12835076
000350 82 9e d6 bd 73 2b d7 3e fa 91 cd 3e 47 ce ab be
       -0.10479452 0.42025337 0.40150434 -0.33555815
000360 91 2d ff be ef 13 62 be cb a7 1c be 4c cb 68 bf
       -0.49839452 -0.22077917 -0.15298383 -0.90935206
000370 95 2d 0f 3e 4e 05 b9 3e 9c a3 a2 3c 0e 25 db bd
       0.13982232 0.3613686 0.019853406 -0.10700427
000380 8c 41 cb bd 60 ec 82 bd 0d a8 d0 3d 55 ae 41 3e
       -0.099246114 -0.06392741 0.10188303 0.18914159
000390 a9 9a 9b be 32 9f 00 bf 32 62 4e 3e fc 6b 2e 3f
       -0.30391434 -0.5024291 0.20154646 0.6813352
0003a0 8b e3 1b 3e 5d c8 68 3e 5d 2b b0 bd 14 f6 a9 be
       0.1522352 0.22732683 -0.08602021 -0.33195555
0003b0 ef 5d 27 be fa 42 2f 3e 50 65 36 3e 24 a7 80 3e
       -0.16344427 0.17115393 0.17812085 0.25127518
0003c0 fa e1 9b 3e a4 7e 02 bf d2 87 5e 3e 6d a3 21 3e
       0.30445844 -0.5097449 0.21731499 0.15784998
0003d0 f8 3a b8 be a8 2b 40 3e 1f 87 76 be c3 cf f5 be
       -0.3598249 0.18766654 -0.24074982 -0.48010072
0003e0 9d 36 1f bd 04 a8 62 be 7d 36 b4 3d 3f 36 a8 be
       -0.038870443 -0.22134405 0.08799455 -0.32853886
0003f0 1c 9d 54 3e be aa 88 3e bb 1c 05 bf 90 e4 94 3d
       0.20763057 0.26692766 -0.51996964 0.07270157

bias f4 [128]
000000 26 c0 31 be 05 61 27 3d de d3 1b bd 7a d0 c7 be
       -0.17358455 0.04086401 -0.03804385 -0.39026242
000010 b8 7e 45 3e e6 5d 40 be c0 73 23 be 85 4e 68 be
       0.1928662 -0.1878582 -0.15962124 -0.22686203
000020 fb 45 48 3d 75 61 c3 3e 43 7e c0 be 33 d6 08 bf
       0.048894864 0.3816029 -0.3759633 -0.5345184
000030 6f 3f 08 bf 63 10 02 bf 3d b1 47 3d e2 a2 85 be
       -0.5322179 -0.50806254 0.048753012 -0.26100832
000040 40 73 1c be 40 e4 32 be a4 0d ee be 45 b2 9c be
       -0.1527834 -0.17469883 -0.46494782 -0.3060476
000050 10 e9 2e 3e cc 2c 0c bf c0 c9 8e 3e 87 b0 8b be
       0.17081094 -0.54755855 0.27888298 -0.27283117
000060 a1 ad a1 be 8a 75 e7 be cb 16 6e be 2c 01 58 be
       -0.3157778 -0.45206863 -0.23250882 -0.21094197
000070 33 af 62 3e eb 5b 6e 3d f8 02 a0 3c b9 c1 0c 3e
       0.22137146 0.05819313 0.019532666 0.13745774
000080 5e 65 b5 be 83 68 80 be d1 6a 95 bd 65 a4 14 be
       -0.354289 -0.25079736 -0.07295764 -0.14515837
000090 45 89 7a be ad bd c6 be b2 fa 7a be 9a 28 8e be
       -0.24466427 -0.38816586 -0.24509695 -0.27765352
0000a0 3a fa 3e 3d 3c 30 53 be e6 09 16 be 03 92 ed be
       0.046625353 -0.20623869 -0.14652213 -0.4640046
0000b0 38 33 bf bd 27 32 89 be c4 8a 89 be 76 8b 95 be
       -0.09335941 -0.26796076 -0.26863682 -0.29207963
0000c0 77 8c 9a be 03 47 c1 3d 38 0e 3d 3e e3 63 07 3e
       -0.3018529 0.094373725 0.18462455 0.13221698
0000d0 4c a2 aa bb 71 56 ed be 0d c9 ab be ee f3 9f be
       -0.0052073356 -0.46355012 -0.33551827 -0.3124079
0000e0 67 4e 9b be 05 aa 8b 3e 60 10 91 3e db e4 24 3e
       -0.30333254 0.27278152 0.28332806 0.16102926
0000f0 ea 2d 3c bd 65 8e aa be f2 25 76 3e 13 5b a7 be
       -0.045942225 -0.33311763 0.24037912 -0.32686672
000100 cb 41 9a be 17 d4 b8 be ea ec ac bd e3 86 c4 bd
       -0.3012832 -0.36099312 -0.08443625 -0.0959604
000110 28 fb 67 3e 21 54 dc be 16 12 99 3d 6e 5c 4b be
       0.22654402 -0.43032935 0.07474153 -0.19859478
000120 1e 33 1b 3f ec 60 8d bd b5 f0 f1 3c c6 96 01 bf
       0.60624874 -0.06903252 0.029533723 -0.50620687
000130 6c 6c 80 3d da 03 ae be 30 4d 06 be 27 e3 57 be
       0.0627068 -0.33987314 -0.13115382 -0.21082745
000140 cf 6e 2b be f7 95 00 bb f3 c2 0c bf 97 fd 67 be
       -0.16741489 -0.0019620636 -0.5498497 -0.2265533
000150 d6 76 1f 3f 97 31 91 3d ef d2 67 be d1 cb b4 bd
       0.62290704 0.07089537 -0.22639059 -0.088279374
000160 4e 68 0a 3d c1 fd fd be 0b fd 4e bd 3f ab ca 3e
       0.03379088 -0.4960766 -0.05053429 0.39583775
000170 90 b4 a2 be 57 c7 32 bf f2 de 36 3e 24 9b 65 be
       -0.31778383 -0.6983542 0.17858484 -0.22422463
000180 f0 0e ef be 45 cb 0e 3b aa a4 f5 bd 59 13 35 bd
       -0.46691084 0.0021788639 -0.11994298 -0.044207904
000190 ef 38 87 be 8a 15 80 be 3f 5b ad bc e5 59 d9 bd
       -0.26410624 -0.25016433 -0.021161674 -0.10612849
0001a0 3d 28 3c be 3f 1b ca be 64 96 9e 3d 6a b6 4e be
       -0.18374725 -0.39473912 0.077435285 -0.20186773
0001b0 e3 8a 84 be 70 e8 e8 be 19 b0 ae bd 14 b6 1c 3f
       -0.25887212 -0.45489836 -0.08529682 0.6121533
0001c0 f7 bd b1 bd 88 dd df 3d 8f ef a1 3c 2b f2 db bd
       -0.08678811 0.109309256 0.01976755 -0.10739549
0001d0 31 a9 a3 3e c8 d7 8e be ae 1a 19 3f 5c 4e 67 be
       0.3196502 -0.27899003 0.59806335 -0.22588485
0001e0 7e fd a2 be c4 a3 1e be 70 65 87 bd f2 a9 d6 be
       -0.31834024 -0.15492159 -0.066111445 -0.41926533
0001f0 6a 83 b7 b9 cc 31 3f be 00 cd 96 3c 5c d5 82 be
       -0.0003500239 -0.1867134 0.018408298 -0.25553405

weight f4 [8, 128]
000000 4b 07 7a 3e 14 e5 3c 3e 56 68 46 3e c7 cf 7b be
       0.24416845 0.18446761 0.19375739 -0.2459098
000010 ad 71 11 bd 58 ae 25 bf 5e 7e a4 3e e7 75 a6 be
       -0.0355088 -0.6471915 0.3212766 -0.32511827
000020 f2 8b 6d be 5f 42 4f be 67 eb e3 3e b6 ed 7e be
       -0.23197916 -0.20240162 0.44515535 -0.24895367
000030 65 72 e3 ba a5 02 87 bd 82 d4 21 be a7 f7 0f be
       -0.0017352818 -0.06592301 -0.15803722 -0.14059316
000040 aa 5e b0 be 27 ad bb be 32 29 1a 3e 6d 04 74 bd
       -0.34447223 -0.36655542 0.15054777 -0.059574533
000050 a5 a0 30 3e 4e c2 bb 3e ab 4f 8d bd 53 fc a7 be
       0.17248781 0.3667168 -0.06899961 -0.32809696
000060 04 87 f8 3e d4 4d bb bd c4 53 6e be f1 e0 9f 3e
       0.4854051 -0.09145704 -0.23274142 0.31226304
000070 98 9d e0 bd 2d ac 02 3d e9 ec 5f be 6e cb 43 3e
       -0.109675586 0.03190248 -0.21867718 0.19120571
000080 13 dd a3 3c 99 56 32 3e be 49 d5 be 18 55 77 be
       0.020002877 0.17415847 -0.41657823 -0.24153554
000090 22 0e fa 3c 05 76 b3 3e 88 f4 ac 3e f3 75 e5 3d
       0.030524317 0.3505098 0.33780313 0.11204138
0000a0 79 4a 89 3e 54 a8 c5 be 20 ea 2b be 4c ed 52 3e
       0.2681463 -0.38604987 -0.1678853 0.20598334
0000b0 5e b7 86 3e 97 ec 35 be 7a ed 7a be 7f df d9 bc
       0.26311773 -0.17766033 -0.24504653 -0.026595829
0000c0 8e c3 07 bf 0d 4b b6 3d c9 9a 84 3e e0 32 ae be
       -0.5303277 0.089010336 0.25899342 -0.3402319
0000d0 51 7b cc 3e e1 14 5f 3e 31 8e 72 3e 2d c0 56 3d
       0.39937833 0.21785308 0.23687054 0.052429367
0000e0 f0 29 59 3e da 33 44 bc 8f 84 65 3e 1d e6 fa be
       0.21207404 -0.011975253 0.22413848 -0.49003688
0000f0 0f f9 56 3e be e4 5f bd 5c dc 5a 3e 06 35 8d 3e
       0.20993446 -0.054661505 0.21373123 0.27579516
000100 9b 03 08 be e2 68 a3 3e f3 1e f5 be 46 bd 29 be
       -0.13282625 0.31915957 -0.47875175 -0.16576108
000110 24 69 b1 3d 7b 45 2d 3e 13 93 c6 3c a2 c9 94 3b
       0.08662632 0.16921036 0.024240052 0.004540638
000120 f8 e8 07 bf a6 51 2d 3e b4 30 52 3e c7 62 12 3e
       -0.5308986 0.16925678 0.20526391 0.14295493
000130 00 cc e8 bd a2 fe 09 bd fd e7 1c 3e 5c 74 99 3e
       -0.11367035 -0.033690102 0.15322872 0.29971588
000140 9e 67 79 be 94 0c ed be 9d ab 03 3f ae b5 08 bf
       -0.24355933 -0.4629866 0.51433736 -0.5340222
000150 0e 65 a2 bd 19 e3 67 be 77 32 3a bd eb d4 78 3e
       -0.07929431 -0.22645225 -0.045458283 0.24299972
000160 39 86 ea be a3 01 54 3d bc f1 01 be f1 ea a7 bb
       -0.4580553 0.051759373 -0.1268987 -0.0051244427
000170 df 9d 08 3e e7 f2 bd be 3b 52 aa bd 71 0b d2 3c
       0.13341473 -0.37099382 -0.083164655 0.025640221
000180 cc 04 ba bd e2 80 02 3e 21 be 21 3d 19 98 f7 3c
       -0.09082946 0.12744477 0.03948796 0.030223893
000190 4b c8 50 3e 7d 60 cc 3c d2 d0 57 3e df 7a 02 bf
       0.20388906 0.024948353 0.21075752 -0.50968736
0001a0 1b e4 e9 bd 4c 27 d1 bd 0f cf 55 3e c2 6e 14 bf
       -0.11420461 -0.102125734 0.20879768 -0.57981503
0001b0 8e af 05 3f d0 8e a6 3e 58 43 f8 be ca 7e 9b 3d
       0.52221 0.32530832 -0.4848888 0.075925425
0001c0 0b b4 87 bb 82 43 27 3e e7 69 40 3d 78 80 22 3e
       -0.004141336 0.16334346 0.046975996 0.1586932
0001d0 e4 31 a1 3e 1c b6 b7 bd a2 a5 0d 3d 5b 09 2b be
       0.31483376 -0.089702815 0.034581788 -0.16702788
0001e0 b0 a0 9d bd 56 4d 80 3d 53 d8 83 be 23 ea 26 3e
       -0.07696664 0.06264751 -0.2575098 0.16300254
0001f0 cd 80 7e 3e dc 09 ee 3d aa d7 81 3e 25 fb 05 bf
       0.24853821 0.11622974 0.2535985 -0.5233634
000200 04 d1 0f bf 49 9e c9 3d 6a 12 7c 3e e3 c8 18 bb
       -0.5617831 0.098446436 0.246164 -0.0023313097
000210 6f a1 17 3e 7c 1f 7c be 24 21 11 be 8e 17 6e 3e
       0.14807676 -0.24621385 -0.14172798 0.23251173
000220 3f 26 a6 be cd b7 57 3d 8b fe 66 bf f5 2f f9 3e
       -0.32451054 0.05266552 -0.9023215 0.486694
000230 1e 85 b1 bd 74 b2 cb 3c 5f 42 f3 3e 17 a5 21 bf
       -0.08667968 0.024865367 0.47511575 -0.6314253
000240 60 7b 67 be 8c 4e 1c 3e a0 ad e0 be b3 8e 0a bd
       -0.22605658 0.15264338 -0.43882465 -0.033827495
000250 b7 95 4d be cf 40 f5 bd d4 f6 e1 3d db 11 1f bf
       -0.20076643 -0.11975252 0.11033407 -0.6213662
000260 b0 d3 f1 bd 53 6b 2b 3e 93 67 80 bc a8 ce b8 be
       -0.11807954 0.1674016 -0.015674388 -0.36095166
000270 6f 34 c6 be 46 57 80 be 5a 16 35 3e 64 6d 51 bf
       -0.3871188 -0.25066584 0.17684308 -0.8180754
000280 70 1e e0 bd b7 fa e4 3d 85 3a 67 bf 0e eb 34 3e
       -0.109433055 0.111806326 -0.9032367 0.17667791
000290 30 ea f2 be d3 7a c6 be 0b 0b 96 3b 4e 22 e7 be
       -0.47444296 -0.38765582 0.004578953 -0.4514336
0002a0 a6 84 bf 3e a7 c0 00 be 88 da 33 be 60 ca 39 3d
       0.3740589 -0.12573491 -0.17563832 0.045359015
0002b0 96 aa 4a be 69 6e 6b be a5 02 6c bf 4e ad 84 3d
       -0.19791636 -0.22991337 -0.92191535 0.06478368
0002c0 c8 57 bb 3d b5 57 4d be ba a2 ff 3d 98 be 51 bf
       0.09147602 -0.20052989 0.124822095 -0.8193145
0002d0 37 ec 01 be 99 1c 91 3d 7a 58 b2 3e 98 a7 46 3d
       -0.12687765 0.07085533 0.34833127 0.048499674
0002e0 56 36 03 3e fd 96 0a 3f 6f 48 30 bf b4 7d 7e 3e
       0.12813696 0.5413664 -0.68860525 0.2485264
0002f0 d1 20 9e be 05 ee c5 be 40 e2 5d bd 63 19 f1 be
       -0.30884412 -0.38658157 -0.054170847 -0.4708968
000300 d8 59 d1 3e ae 17 c8 be 4d 3a cd be dd 90 b8 3e
       0.40888858 -0.39080566 -0.40083542 0.36048022
000310 e0 6f f6 3d a9 37 94 3d 8e 10 3d bf 0e 58 b2 be
       0.12033057 0.07237179 -0.73853385 -0.34832805
000320 a7 0c 32 3e 1f 29 32 bf 45 5a d1 be 4c 06 ac 3e
       0.17387639 -0.69593996 -0.40889183 0.33598554
000330 4f c0 1a bd ae d0 90 3e 1d bf e8 3d c1 56 21 3e
       -0.037781056 0.2828421 0.11364577 0.1575575
000340 db 90 4f 3e cd d4 2a 3e 91 27 81 3e 69 b0 04 3d
       0.20270102 0.1668274 0.252255 0.0323948
000350 62 5b d1 bd 0b cd 03 3e bc b8 e1 3e df 61 72 3d
       -0.10222508 0.12871186 0.44086254 0.05917537
000360 7e 79 b9 3d b2 b6 a8 bc 93 64 d1 3e da 64 76 bf
       0.09056376 -0.020594928 0.40897045 -0.9624764
000370 2a 36 e4 bc e0 73 08 be fd 2c 06 3f e5 a2 3c 3e
       -0.027857859 -0.13325453 0.52412397 0.18421514
000380 1c 38 44 3e 34 67 0f bf 9a e4 c0 be 4d d8 3b bf
       0.19162029 -0.5601685 -0.3767441 -0.73376924
000390 5a 09 71 bc 41 9e 53 3e 5f 3d 8c 3e b0 e9 c6 be
       -0.014711702 0.20665838 0.27390572 -0.38850164
0003a0 41 a1 81 3d a5 9c 49 3b 1a 33 0c be 12 9d 86 be
       0.06329585 0.0030763533 -0.13691369 -0.2629171
0003b0 d3 16 06 3e f4 e6 b1 be 33 d5 a9 3e 0b 66 66 bc
       0.13094644 -0.34746516 0.3317047 -0.014062415
0003c0 1b 76 5f 3d 4a bf 33 be c6 4f 0b 3e b9 a5 75 be
       0.054555994 -0.1755344 0.1360465 -0.23989
0003d0 e2 29 ab be 56 1e 0e bf 78 18 58 bd 68 fe b8 bb
       -0.33430392 -0.5551504 -0.05275771 -0.005645562
0003e0 c6 f7 ba be a6 bc 53 3e 0d 7f f0 3e 73 55 de 3e
       -0.3651716 0.20677432 0.46971932 0.43424568
0003f0 76 cc 44 be 3e 18 65 bf da 98 8d bd a5 d6 1a bf
       -0.1921862 -0.89490116 -0.0691392 -0.6048377

bias f4 [8]
000000 be ba 22 be 3e 99 0c be b5 8b ed 3e 18 8f 80 3c
       -0.15891549 -0.13730332 0.4639565 0.015693232
000010 ec 34 58 3d 2d ef e6 3e 41 75 23 be d9 63 e5 3e
       0.052784845 0.45104352 -0.15962698 0.4480274

weight f4 [128, 54]
000000 69 65 8e 3e 34 3a 1c bd e0 c7 87 3e 55 c0 3b 3d
       0.27811745 -0.038141444 0.2651968 0.04583772
000010 a6 c1 e8 be 90 c9 94 3e 63 40 95 3e bc 94 9a be
       -0.45460242 0.2906003 0.29150686 -0.301916
000020 f8 27 07 3e 52 2e f3 3d 18 42 7c bd 5b 55 86 bd
       0.1319884 0.11874069 -0.06158647 -0.06559249
000030 18 74 11 3f 3f a8 66 3e 16 f2 4f 3e 3a ab 43 3d
       0.5681777 0.22525118 0.20307192 0.047770716
000040 bb a5 76 3e ce 56 44 3e f9 fc 91 3e bd 28 4d bb
       0.24086659 0.19173738 0.28513315 -0.00313048
000050 84 5a b2 3e 2c 5a 05 bd d4 64 22 bc a6 f1 17 be
       0.34834683 -0.032556698 -0.009911735 -0.14838275
000060 72 9d 9e bd ab e6 1b 3d 1b 8e 96 be 81 b6 b9 3e
       -0.07744874 0.03806178 -0.29405293 0.36272052
000070 b7 b9 28 3e 21 5f 31 be 3d c7 44 be 6a c5 27 be
       0.16477095 -0.17321445 -0.19216628 -0.16383901
000080 41 65 0b 3f f1 42 42 be 2e 4d c2 be f2 72 57 3d
       0.54451376 -0.18970849 -0.37949508 0.052599855
000090 07 3d 4a bd 53 e0 a8 bc c2 06 9a 3d 73 a7 01 3d
       -0.049374606 -0.020614779 0.0752082 0.031653833
0000a0 c1 43 82 3d 85 43 b3 bd 69 3a e8 bd 1f a5 70 3e
       0.06360579 -0.08753113 -0.11339266 0.23500489
0000b0 f6 4d 0b be 4e 7d c6 3e ab 88 07 be 03 57 58 3c
       -0.13603958 0.38767475 -0.13235728 0.013204339
0000c0 cb 80 a8 be 00 97 b1 be f1 07 a6 bd 95 a6 c0 bc
       -0.3291076 -0.34685516 -0.081069835 -0.023516933
0000d0 d0 e4 6d 3d 43 fb 43 be 9f f5 02 3d 2a ed d0 3e
       0.05807954 -0.19138817 0.031972524 0.40805942
0000e0 8e 59 ed 3e ea 3f fb be f7 68 4e be 1e 6d cf 3e
       0.46357387 -0.490722 -0.20157228 0.40512937
0000f0 7c 8c 49 bd 08 e4 27 3f 75 b4 0a bf 88 ad 08 3d
       -0.049206242 0.65582323 -0.54181606 0.033368617
000100 6c 22 93 bc 6e a8 3c be c8 2a 92 3e c2 82 65 be
       -0.01796075 -0.18423626 0.28548265 -0.22413161
000110 90 ee 46 3b 1d 9c 04 3d 5b b2 d0 bc a1 53 1c 3e
       0.0030354597 0.032375444 -0.025475672 0.15266277
000120 5d af cc 3d 54 2d 46 3d 56 74 fa bd 6c 88 ed 3d
       0.099943854 0.048383072 -0.122292206 0.11598286
000130 60 71 dd 3d b3 25 2b bc bf 0d 3d bd 60 45 ab bd
       0.1081264 -0.010446 -0.046155687 -0.083628416
000140 7a b9 39 be fe c7 0c 3e e5 7c da bb 8c 1f a5 3d
       -0.1813716 0.13748166 -0.0066677206 0.08062658
000150 f7 a2 61 bd 42 44 c6 3b 80 cd c5 3d 8d 5d 4a 3e
       -0.055087056 0.0060506174 0.09658337 0.1976225
000160 a2 11 b6 3c 9e c7 76 bc dc 36 00 3d 37 0b 9d 3c
       0.022225205 -0.015062241 0.031302318 0.019170387
000170 98 16 0b bd d5 a4 e6 bd 85 c3 a3 bb 9a be ae 3b
       -0.033957094 -0.11261908 -0.004997673 0.00533278
000180 fe 68 ef bd 6e 83 1e be e8 ab 49 be e9 e4 ed bd
       -0.116899475 -0.15479824 -0.19694483 -0.11615927
000190 1f 7b 3f bc f7 da 5c bc c9 ab dc 3c ec aa 1f 3d
       -0.011687069 -0.01347994 0.026937382 0.038981363
0001a0 b1 d6 04 3d 52 97 c1 3d 95 96 27 bd a5 b1 66 3d
       0.03243131 0.0945269 -0.04091509 0.05632176
0001b0 d8 cb 68 be 65 a8 ae 3e 16 d7 f1 bd 63 d9 71 3f
       -0.2273401 0.3411285 -0.118086025 0.9447233
0001c0 6a 05 72 3e 08 9c 22 3e 7c 1f 7b 3e c4 23 58 bd
       0.23634878 0.15879834 0.24523729 -0.052768484
0001d0 ff ea 32 3d 7c ff 66 be aa 53 f1 bd c0 49 bf be
       0.04368114 -0.22558397 -0.11783536 -0.37360954
0001e0 25 0c 05 3f 2b 82 01 bf f3 42 3b 3e 23 f6 4e 3d
       0.51971656 -0.50589246 0.18287258 0.050527703
0001f0 51 ec 27 3d 5d 23 4b bb fa 02 38 3d b8 3d 3f 3d
       0.040996853 -0.003099642 0.044924714 0.04668972
000200 63 61 65 3d a4 88 8e bd 38 85 fc 3d db fe 42 3c
       0.05600108 -0.06959656 0.12330097 0.011901583
000210 de 64 01 3c f4 d0 80 3d dd be 88 3d d9 77 3b bc
       0.007897584 0.06289855 0.06677029 -0.011442148
000220 52 e2 83 bd e9 06 ce bc bb cd 77 3d a1 2d 09 3e
       -0.064396515 -0.02514978 0.060498934 0.13396312
000230 47 94 31 3e 36 6c 02 3b 4d 1c 00 3e f4 c2 a6 3d
       0.1734172 0.0019900925 0.12510796 0.08142653
000240 e7 ba 5d 3e ae e4 43 be b9 91 b6 3c 83 4b e2 3c
       0.21653329 -0.19130203 0.022286283 0.027623897
000250 ef e7 27 3d 1e 38 29 bd e5 b1 43 bc 4e 5e 19 be
       0.040992673 -0.041313283 -0.011944269 -0.1497738
000260 66 d5 d8 3c 93 01 48 bd 3e 12 bb bb 90 5e a4 bc
       0.026468944 -0.048829626 -0.0057089617 -0.020064622
000270 2f 47 0b 3d b6 c3 f9 3c 0c a3 41 3c c9 74 b5 bb
       0.034003433 0.03048883 0.011818659 -0.0055376035
000280 1d 58 98 bc a2 5b 42 3d 78 62 4a be ec ae 26 bc
       -0.018596703 0.04745067 -0.19764125 -0.010173541
000290 90 b5 b5 be 36 30 40 bd 45 04 93 bd e3 59 33 be
       -0.35490084 -0.046920978 -0.07178549 -0.17514758
0002a0 bc 0f d9 3e a8 4a 9b be 19 d1 c9 3d 01 b8 c2 be
       0.42394817 -0.30330396 0.09854335 -0.3803101
0002b0 d3 7e 6b 3e 93 e9 8b bc e0 e5 88 be 1e 63 e7 3e
       0.22997598 -0.01707915 -0.2673788 0.45192808
0002c0 27 9b 94 be de 67 b0 bc 83 44 31 bd 97 c0 77 3d
       -0.29024622 -0.021533903 -0.04327823 0.060486402
0002d0 95 7c 1b ba 41 62 63 bd b3 b1 e7 3e b4 24 05 be
       -0.0005931345 -0.055513624 0.4525276 -0.13002282
0002e0 87 71 a0 bd db 43 ec bd ab 42 84 be cf 50 b1 3d
       -0.078341536 -0.1153638 -0.25832114 0.08657991
0002f0 2a b1 3a be 02 f6 61 3d 48 5b f1 3c 6d e1 e3 3e
       -0.18231645 0.055166252 0.029462472 0.44507924
000300 58 64 13 3f 39 1d f6 be 68 44 8b 3e 87 0c 23 3e
       0.5757499 -0.4806917 0.27200627 0.15922748
000310 89 66 5d be 31 c2 83 be 83 32 0d be 46 c2 a3 3d
       -0.21621145 -0.25734094 -0.137888 0.07996039
000320 05 85 e5 3c f2 86 07 3f d9 01 50 be 0a 79 86 3e
       0.02801753 0.52940285 -0.20313205 0.2626422
000330 1f 24 91 be 1a b8 53 be cc b8 8d be 26 33 d1 bd
       -0.2834787 -0.20675698 -0.2768005 -0.10214834
000340 06 2c 12 3e 66 5b cf 3d ce ae a6 be 88 56 79 be
       0.14274606 0.10124855 -0.3255524 -0.24349415
000350 0a fd d3 be 1d 23 2e be 12 16 95 3d 18 6b 51 be
       -0.4140399 -0.17005582 0.072796 -0.2045101
000360 56 b3 d1 3c 6e be 0e 3d 15 7f d5 3e 4b 07 15 3f
       0.02559821 0.034849577 0.41698518 0.58214253
000370 13 c9 8d bc 08 60 f5 be c5 ff 2e 3e b8 0d c3 be
       -0.017307794 -0.4792483 0.17089756 -0.38096404
000380 70 24 5d bc c1 a8 ad bd 78 73 54 be 02 46 e3 be
       -0.013497457 -0.08479453 -0.20747173 -0.4438935
000390 31 b3 6d 3e 4c 1c 21 3e e3 0d 58 be 8b f5 20 3e
       0.23212887 0.1573345 -0.21099047 0.15718667
0003a0 a0 1e 87 bc c7 5c cf bd 1c 56 48 bd de 33 4c 3e
       -0.016494095 -0.10125118 -0.048910245 0.19941661
0003b0 7d 06 87 be ee 08 9b 3e 46 f0 17 be 17 48 91 3e
       -0.26372138 0.3028025 -0.14837751 0.28375313
0003c0 f8 94 bd 3e 3e 9c ff 3d 37 7d 73 3c a7 7c 9b 3e
       0.37027717 0.12480973 0.0148613965 0.3036854
0003d0 a6 a9 2d be 11 5d f7 3d 7c 23 a4 3e ba ef ac be
       -0.16959247 0.12078298 0.32058322 -0.33776647
0003e0 e4 7d 97 3e bd 2e 77 3e c8 40 aa 3d 91 5a 42 3e
       0.29588234 0.24138923 0.08313137 0.18979861
0003f0 b7 6a 90 3e d8 3e 71 3e ec 99 06 3f a7 e1 4f be
       0.28206417 0.23559129 0.52578616 -0.20300923

bias f4 [128]
000000 8e 38 b6 be bd 43 fe 3e fe fe 95 3e b6 e1 9c be
       -0.35590023 0.49661055 0.29296106 -0.30640954
000010 8b dc 51 3d f3 fc 6d be 4e 4f 45 3d e9 96 eb be
       0.051235717 -0.23241024 0.048171334 -0.46013573
000020 ff bd 8c be 81 0c 61 be 68 76 3e 3e 0c e6 b1 be
       -0.27488706 -0.21977426 0.18599856 -0.34745824
000030 c8 d9 10 bf 73 18 e6 b9 1e 3d 2e bf c0 6e c0 be
       -0.5658231 -0.00043887235 -0.6806201 -0.37584496
000040 11 5a 3a bc f0 52 4f be fd b6 00 bf 4b c7 be bd
       -0.011374013 -0.20246482 -0.5027922 -0.09315356
000050 9e 01 db be 6d 00 a9 be a9 89 c8 be b3 fa d6 be
       -0.4277467 -0.33008137 -0.39167526 -0.41988143
000060 8c f0 72 bd df 18 36 bf 91 71 a2 3d 40 4b 4b be
       -0.059311435 -0.711317 0.07931817 -0.19852924
000070 4a e4 a8 3e ba 34 95 3e fe d6 f8 be e5 c8 f3 3b
       0.3298667 0.2914179 -0.48601526 0.00743972
000080 a5 11 0f bf 7a ef 55 3e 54 7d b1 be d2 16 a5 3e
       -0.558863 0.20892134 -0.3466593 0.32243973
000090 9a bb c0 be b1 21 8e be fa e7 e0 be 2c 00 2e bf
       -0.3764313 -0.2776008 -0.43926984 -0.6796901
0000a0 be 61 19 be 6e 19 b3 be 4a 2e 70 3d a7 4a 1b bf
       -0.14978692 -0.3498034 0.058637895 -0.60660785
0000b0 5e 9f c2 be 6e 26 49 be 03 83 ab 3e 37 c8 0a bf
       -0.38012213 -0.19643566 0.33498392 -0.54211754
0000c0 69 12 bd be 6b ad af bc b5 80 7b be c6 74 ce bc
       -0.36928108 -0.021444997 -0.24560817 -0.025202166
0000d0 46 64 86 3e 2d be c1 be ae 0c 65 bf 23 61 af be
       0.26248378 -0.37840405 -0.8947247 -0.34253797
0000e0 a4 44 75 be 1c c5 f3 3e 4b a5 b0 be 8f bd de be
       -0.23951966 0.4761132 -0.3450111 -0.43503997
0000f0 53 d2 2c 3e 8e 94 de bd 76 52 3b bd 1e 58 18 bf
       0.16877107 -0.10868178 -0.045732938 -0.59509456
000100 e4 d6 0d bf 74 bf 01 3c 0e e5 d6 3c 68 8e 70 be
       -0.5540602 0.007919181 0.026232269 -0.23491824
000110 53 7b 9d be d6 11 82 3e bc 8f 15 be f1 33 31 bf
       -0.3075815 0.25404233 -0.14605612 -0.6921988
000120 5e 0d d0 3e 6e c0 d3 3e 0d f7 a8 be f1 3a 4a be
       0.40635198 0.4135775 -0.33000985 -0.19749047
000130 dc ba 90 be 98 9e f4 be 29 49 d2 be a9 7f ad be
       -0.28267562 -0.47777247 -0.41071442 -0.3388646
000140 62 38 0f be 4f 43 85 3d f2 23 7b 3e 02 cb 32 bf
       -0.13986352 0.06506979 0.24525431 -0.69841015
000150 e6 19 0e bf 46 47 21 bf db 38 cf 3d 4f 61 0d 3f
       -0.5550827 -0.6299938 0.10118266 0.55226606
000160 65 f1 01 3e 92 aa 33 bd 4b 82 dd bd a7 e3 dd bd
       0.12689741 -0.04386384 -0.10815867 -0.10834437
000170 f0 91 b5 be d2 8a e2 bd 0c 09 87 be e6 88 19 bf
       -0.35462904 -0.11061634 -0.2637409 -0.59974515
000180 f7 be c5 be 40 8d cd be 54 8a 9c bd 29 39 ed 3b
       -0.38622257 -0.40146828 -0.076435715 0.00723948
000190 3b b2 a4 be e9 e3 8c 3c af d9 ce be a2 db 24 bf
       -0.3216723 0.01719852 -0.40400454 -0.64397633
0001a0 37 94 09 3e e4 a5 d8 3a 57 4c 4a bf 9a a3 ba 3c
       0.13435446 0.0016528931 -0.79022735 0.02278309
0001b0 7e 8d 34 bf 1c b6 c5 be 01 94 1d 3e de 10 ac 3e
       -0.705284 -0.386155 0.1538849 0.3360662
0001c0 23 5d 31 3f 1f 6e c5 be 2a 5e ce be 46 84 c2 be
       0.6928274 -0.38560578 -0.40306216 -0.37991542
0001d0 94 b9 1e bf b9 95 17 bf 97 c1 a2 3e 85 f1 4c bd
       -0.6200192 -0.59212834 0.31788322 -0.05003502
0001e0 93 3c fb 3e b6 f6 d1 bd b8 15 87 3e 7b 39 fc be
       0.49069652 -0.102521345 0.26383758 -0.49262604
0001f0 0c 74 60 be a4 3c ad be db 10 7a 3d f9 c4 07 bf
       -0.21919268 -0.33835328 0.06105123 -0.5303493

weight f4 [128, 128]
000000 66 ca 3e be 56 78 5e 3d a3 07 65 3d 06 e6 84 be
       -0.18631896 0.05431398 0.055915486 -0.25956744
000010 6e 15 9f 3e 4e 2b f3 be e7 ec f9 be bf 62 06 bd
       0.31071037 -0.47493976 -0.48813555 -0.032809015
000020 8d 0e 72 3d cf 2b 6c be 22 c0 c9 bd 5d e5 8e be
       0.059095908 -0.23063587 -0.098510996 -0.27909365
000030 d6 83 59 3d a2 dc d1 be 81 8d 44 be fe 5c c9 3c
       0.053104244 -0.40988642 -0.19194604 0.024580475
000040 df 26 b5 be 06 f5 68 bc 0b ba 5b be b6 f9 91 be
       -0.3538122 -0.014218574 -0.21457689 -0.28510827
000050 76 d2 58 be d7 de a0 be d5 b2 58 3e 70 4f c7 bd
       -0.21174034 -0.31420013 0.21161969 -0.097319484
000060 6b f0 2a 3e c6 2b 38 3c 06 24 0f 3d 4c 88 33 3e
       0.16693275 0.011240905 0.034946464 0.17532462
000070 5d 6a ad bd 78 06 d9 3c 06 92 0e bf 7a 13 b9 bb
       -0.08467553 0.026492342 -0.55691564 -0.0056480737
000080 96 9e a5 3e 26 53 0d bf 3a 6c 15 3d 31 d0 48 be
       0.32347554 -0.55205 0.036480166 -0.19610669
000090 2e 0f c1 bd db eb 1c 3f 3e 93 70 bd a0 26 ba 3d
       -0.094267234 0.61297387 -0.05873417 0.090893984
0000a0 49 38 f5 be e7 37 7d 3e 5e 49 0a be e8 9e 6c be
       -0.47894505 0.24728356 -0.1350455 -0.23107493
0000b0 2b dc 84 3e ae 22 3b 3e 54 20 6e 3c 13 d0 5e 3e
       0.25949225 0.18274948 0.014534075 0.21759062
0000c0 b8 30 d9 3d fd 25 0c be 4d 44 10 be 4a a2 1e 3d
       0.106049955 -0.13686366 -0.14088555 0.03872899
0000d0 34 04 e9 3b 7d eb f7 3d 74 21 e2 be ff 30 56 3e
       0.0071110968 0.12105463 -0.44166148 0.20917128
0000e0 f9 ef 00 be 9c 09 fb 3c 46 e1 63 3e ed c8 3f bd
       -0.12591542 0.03064423 0.22253904 -0.046822477
0000f0 fc 31 00 bd 11 40 13 bf cd 9d df 3d d8 40 13 bc
       -0.03129767 -0.5751963 0.1091877 -0.008987628
000100 11 db e1 3a d7 8d 34 be c7 7b 7b be 0f b0 70 be
       0.0017231425 -0.17632233 -0.24558936 -0.23504661
000110 a5 29 e5 be c7 ba 61 3c 9c 04 33 bb db 7f ba bd
       -0.44758335 0.013777441 -0.002731598 -0.09106418
000120 cf d7 8f be 4d 89 8e be 07 23 4b bd 1f 6f bb bc
       -0.28094336 -0.27839127 -0.04959395 -0.022880135
000130 af 13 e2 bc be 36 92 be bb 85 13 3f 17 20 bb be
       -0.027597276 -0.2855739 0.5762593 -0.3654792
000140 f6 e6 07 bf 39 2f 79 be 04 c6 22 be 1a 5d db 3d
       -0.53086793 -0.2433442 -0.1589585 0.10711117
000150 14 2f 95 3e 3a d9 4a be 2e a1 30 3d 1b 42 32 be
       0.2913748 -0.19809428 0.043122463 -0.1740803
000160 e2 52 f8 be 84 75 bf be a1 80 07 3d 20 be 5b 3e
       -0.48500735 -0.37394345 0.033081654 0.21459246
000170 d1 61 06 3e 00 76 9f 3e 83 36 e0 bd 1e 8f 18 be
       0.13123251 0.31144714 -0.10947897 -0.14898345
000180 e2 27 bf be 09 64 e4 3c 82 32 63 3d 54 01 05 3e
       -0.37335116 0.027879732 0.05546809 0.12988788
000190 a4 4e 43 3e 19 1b 83 bd 08 67 a9 be e6 4b 32 be
       0.19072968 -0.06401653 -0.3308642 -0.17411765
0001a0 24 ef 99 be 14 2e 28 bf d0 19 ac 3d aa c7 70 3e
       -0.30065262 -0.6569531 0.08403361 0.23513666
0001b0 75 8b 40 be a1 89 5c bd 4c f6 d7 be 9b e6 42 3d
       -0.18803199 -0.05384219 -0.42180097 0.047583204
0001c0 a6 53 97 bd a0 62 f3 3d 29 3a 92 3d 5a 2d fa be
       -0.073890015 0.118840456 0.071399994 -0.48862725
0001d0 49 36 ac 3d 88 eb 86 be 9b 24 6c 3e 82 11 0e be
       0.084087916 -0.2635157 0.23060839 -0.13873866
0001e0 2a d8 1a 3d 52 af cf 3b 49 16 b6 be bf a1 05 bf
       0.037803806 0.0063380385 -0.35563877 -0.5219993
0001f0 aa e0 0f 3d f7 a0 1a be 0e cb 81 be c2 fa c9 be
       0.035126366 -0.15100466 -0.2535023 -0.39449126
000200 e0 19 18 bf 49 51 ab bd 72 1e 14 be a2 dd c0 3d
       -0.5941448 -0.08365113 -0.14464739 0.09417273
000210 2a 76 96 3e cd 38 8d be 88 74 c4 be fc d6 bd be
       0.29387027 -0.27582398 -0.38370156 -0.37078083
000220 92 30 38 be 54 d5 b5 be a5 36 0d 3e a0 03 88 3c
       -0.17987278 -0.3551432 0.13790376 0.016603291
000230 1d b6 14 bf a5 d8 4c be 9e 79 99 be dc 1f ca bd
       -0.5809038 -0.20004518 -0.299756 -0.09869358
000240 a0 25 60 3b 7b 58 dc bd be 03 bb bd a0 9e 99 bd
       0.0034202114 -0.10759064 -0.09131573 -0.075009584
000250 fd 20 a0 3c 35 91 1e bf cc 2e 51 be d8 ad c1 be
       0.01954698 -0.6194032 -0.20428008 -0.37827945
000260 25 74 94 3e 6b 2c b9 bd 5e 22 e7 bd fe 04 af 3d
       0.2899486 -0.09041675 -0.11285852 0.08545874
000270 ed ba 59 3e 92 bf 63 bd 62 3e b0 be fa 46 f1 be
       0.21262713 -0.055602618 -0.34422594 -0.47124463
000280 a3 64 2f 3e 90 be 9b be 1c 95 19 3e 4a 22 2d be
       0.17128234 -0.30418825 0.14998287 -0.16907611
000290 67 47 a6 bb 3c b0 4a 3e e0 70 25 be 31 50 c4 3e
       -0.00507443 0.1979379 -0.1615634 0.3834243
0002a0 66 a3 ba be 17 06 58 3e a3 a5 a1 bd eb cd be bd
       -0.36452788 0.21096073 -0.07892921 -0.093166195
0002b0 af 14 eb 3d f9 97 49 be a4 d1 93 be d6 86 77 be
       0.114785545 -0.19686879 -0.2887088 -0.2417253
0002c0 e7 f6 60 3e 7e 60 d4 be eb cd 62 bf 47 02 5b bd
       0.21969186 -0.41479868 -0.88595456 -0.05346897
0002d0 b9 74 01 3e 3b 4f 4c 3e 31 e0 ce be dc ab 8a be
       0.12642182 0.19952099 -0.4040542 -0.27084243
0002e0 c7 ce 87 3e d6 55 b6 bc d1 f4 4b 3e b0 e8 06 3d
       0.26524946 -0.022257727 0.19917609 0.03293675
0002f0 7b 86 9a be bc d0 63 be a2 cb 3c 3e 8e 49 77 3c
       -0.30180725 -0.22247595 0.18437055 0.01509322
000300 83 7f 9e bd 04 4a 19 3e 76 93 c7 be 60 6c a7 be
       -0.07739165 0.14969641 -0.3897969 -0.3269987
000310 04 83 5f be c2 ca bc be 80 d5 96 bd c5 6b 6c bf
       -0.21827322 -0.36873442 -0.07364941 -0.92351943
000320 f4 25 09 be bf 77 1b bf ec e7 20 3e 0c 8b a4 be
       -0.13393384 -0.60729593 0.15713471 -0.32137334
000330 18 3a 4e 3e e8 bf 22 bf f5 c2 a0 3d 37 5c b6 be
       0.20139349 -0.63574076 0.07849685 -0.3561723
000340 a8 10 15 bd 08 3f da 3d 25 a7 f1 3d bb 30 ea 3d
       -0.036392838 0.106565535 0.117994584 0.11435076
000350 36 66 95 3d 71 50 b0 be eb da fd be 33 de 22 bf
       0.07294886 -0.34436372 -0.49581084 -0.636203
000360 86 1f 15 bf 8b 8a 5b bf 67 39 26 be 3d 32 84 be
       -0.58251226 -0.85758275 -0.16232835 -0.2581958
000370 d4 90 91 bc c2 e0 33 3e 8c a2 9a 3d 32 68 f6 3d
       -0.017769255 0.17566207 0.075505346 0.120315924
000380 0f ca 7f 3c d4 e0 03 bf 55 e1 7f be a8 9d 63 3e
       0.015612139 -0.51514935 -0.24988301 0.2222811
000390 55 6e 03 3e 2e c5 2b be d2 45 d6 bc 48 27 9f bd
       0.12835057 -0.16774437 -0.02615634 -0.07771164
0003a0 8c 0a bc 3d e7 b1 71 be 74 bf 11 3c 35 8d d8 bd
       0.09181699 -0.2360302 0.008895744 -0.10573808
0003b0 7d 75 ff bd 57 90 3f be 4f 3d aa be 78 74 94 3e
       -0.12473581 -0.18707405 -0.332499 0.2899511
0003c0 b6 e9 a6 3d a6 ec d9 bd 89 d8 74 3e fa 51 b1 be
       0.081500456 -0.1064084 0.23910727 -0.34632856
0003d0 c8 c2 85 3e ac 14 ce bd 17 33 bf be e0 8c 10 3e
       0.2612517 -0.100625366 -0.37343666 0.1411624
0003e0 bf 58 18 3e 6f cd cf be 1a e7 82 be e8 33 ef 3d
       0.14877604 -0.4058642 -0.25566941 0.11679822
0003f0 b3 eb 10 3d db 4a ca be a0 58 3a be 5d 08 d0 bd
       0.03538103 -0.39510235 -0.1819787 -0.10157845
