wx200/policywx.pt (torch, 723775 bytes, 8 tensors)

weight f4 [512, 24]
0	0x3ea2e350	0.3181405
1	0xbdbb4ad5	-0.091451325
2	0x3e07b2c7	0.13251792
3	0x3d229b8e	0.03969913
4	0xbe8b4056	-0.27197522
5	0xbc1b8864	-0.009492967
6	0xbcb94cb2	-0.022619579
7	0x3b5c4a0a	0.0033613467
8	0x3e9542b2	0.29152447
9	0xbe1130c8	-0.14178765
10	0x3e86a49d	0.26297465
11	0xbf40a221	-0.7524739
12	0x3e8d1695	0.2755629
13	0x3cfa29a5	0.030537436
14	0x3f1ff3aa	0.62481177
15	0xbf1b49f0	-0.60659695
16	0x3f44374c	0.76646876
17	0xbd19b699	-0.037527654
18	0x3e05e4cd	0.13075562
19	0xbd7c4655	-0.06159051
20	0x3d43b750	0.047782242
21	0x3c3be032	0.011467027
22	0xbd08d88f	-0.03340965
23	0x3d8c51b5	0.06851522
24	0xbdf873ff	-0.121314995
25	0x3c521648	0.012822695
26	0x3f9c7ecc	1.2226195
27	0x3e81d0ac	0.25354517
28	0xbdda8189	-0.10669238
29	0x3e964036	0.29345864
30	0x3dcd46d9	0.10023279
31	0x3e40484f	0.18777584
32	0x3d8fe705	0.07026485
33	0xbde57e5d	-0.112057425
34	0xbdff79f4	-0.124744326
35	0xbea6bfed	-0.32568303
36	0x3ec85a52	0.3913141
37	0x3e48b891	0.19601656
38	0x3e479858	0.19491708
39	0x3ed99fbd	0.42504683
40	0x3f3e5ca2	0.74360096
41	0xbb465e2e	-0.0030268538
42	0x3daee929	0.085405655
43	0x3b2208d9	0.0024724512
44	0xbd3614c9	-0.044453416
45	0x3bac9c26	0.005267638
46	0xbc7e2566	-0.015511846
47	0x3c99b1c3	0.018761521
48	0xbe0d26ee	-0.13784382
49	0x3d9a14f0	0.07523525
50	0xbfb8bfa9	-1.443349
51	0x3c9e59d5	0.019329945
52	0x3d95bf0c	0.0731183
53	0x3c8fc100	0.017548084
54	0x3e059c9d	0.13048024
55	0x3dad5255	0.08462969
56	0xbc8cb49a	-0.017175961
57	0xbe445f20	-0.19176912
58	0xba8500d3	-0.001014734
59	0x3ba36a43	0.0049870326
60	0xbec0d382	-0.37661368
61	0x3f1e3129	0.6179376
62	0x3e533af0	0.20627952
63	0xbde26063	-0.110535406
64	0xbed8df39	-0.42357805
65	0xbc81cf79	-0.015846001
66	0x3ca18b87	0.019719852
67	0x3c6cfcda	0.014464581
68	0xbcf5e9bb	-0.030018678
69	0xbde11cbb	-0.10991808
70	0x3c85de65	0.016341398
71	0x3bca23a8	0.0061688013
72	0x3fd6ed8c	1.6791244
73	0xbbbcc1dc	-0.0057604145
74	0xbed2145a	-0.41031152
75	0x3e562e0f	0.20916007
76	0xbdc6019e	-0.09668277
77	0xbdb577a1	-0.08860708
78	0xbe92ae69	-0.2864869
79	0x3d764c93	0.06013162
80	0xbd0c64ed	-0.034275938
81	0xbe476651	-0.19472624
82	0x3dd5137d	0.10404108
83	0xbe4b9db9	-0.19884385
84	0x3e9382cd	0.2881073
85	0xbeb9571c	-0.36199272
86	0xbec81c6e	-0.3908419
87	0xbe6881b6	-0.22705731
88	0xbd78e8d3	-0.060768913
89	0x3d4582f9	0.04822061
90	0x3d25b216	0.04045304
91	0xbd443180	-0.04789877
92	0x3da7e497	0.08197897
93	0x3cc12d23	0.023581093
94	0xbdb1b5c7	-0.086772494
95	0xbde22255	-0.110417046
96	0x3fa55272	1.2915785
97	0xbf446575	-0.7671731
98	0xbf99fe6a	-1.2030766
99	0xbd1211cd	-0.035661507
100	0x3e3164ba	0.1732358
101	0xbe5c8ab9	-0.21537293
102	0x3d067aa1	0.03283179
103	0x3d5798ea	0.052636065
104	0xbe119e2f	-0.14220499
105	0xbe0fd96a	-0.1404778
106	0x3f0a77f2	0.5408927
107	0xbe2cb138	-0.16864479
108	0xbc152629	-0.009103336
109	0xbe07fba6	-0.1327959
110	0x3d919074	0.0710763
111	0x3e9659fb	0.29365525
112	0x3d46808e	0.048462443
113	0xbc647fdf	-0.0139465025
114	0x3d28020a	0.04101757
115	0x3d0cbcd5	0.03435977
116	0xbbceb27e	-0.006307899
117	0x3c77c1d6	0.015121898
118	0x3aee4095	0.0018177206
119	0xbe176fb7	-0.1478871
120	0xbe99f6e7	-0.30071184
121	0x3c54ddcf	0.012992336
122	0x3f2078e6	0.62684476
123	0xbb8ddf48	-0.0043295957
124	0x3e1fff93	0.15624838
125	0xbd99b705	-0.07505611
126	0xbd908493	-0.070565365
127	0xbd7c5740	-0.061606646
128	0xbdec04a4	-0.11524323
129	0x3e83f46b	0.25772414
130	0xbf18db99	-0.5971008
131	0xbea83984	-0.3285638
132	0x3ecd4e3b	0.40098748
133	0x3e2bc6fa	0.16775122
134	0x3f3c7059	0.7360893
135	0xbe6221f3	-0.22083263
136	0x3e875bc7	0.26437208
137	0x3d966f63	0.07345464
138	0xbdbad860	-0.091233015
139	0xbc804569	-0.015658097
140	0x3d09311a	0.033494093
141	0xbd262878	-0.040565938
142	0xbd81c703	-0.063367866
143	0x3d2d4166	0.042298697
144	0x3dc67f1f	0.09692215
145	0xbd9d38af	-0.07676827
146	0xbeba2a05	-0.36360183
147	0x3e52b7fe	0.20578
148	0xbdc20e9d	-0.094754435
149	0x3ed0fb9d	0.40816966
150	0xbbd8c318	-0.006615054
151	0x3e61c140	0.22046375
152	0xbe1fe7c8	-0.15615761
153	0xbce16522	-0.027514044
154	0xbe98653d	-0.2976474
155	0xbd3f50d7	-0.046707954
156	0xbe0266d3	-0.12734537
157	0x3e6e84ea	0.2329289
158	0xbdcfd8ed	-0.10148797
159	0x3f5e9437	0.8694491
160	0xbe6a1060	-0.22857809
161	0x3d835a5f	0.06413721
162	0x3b68ed2b	0.0035541754
163	0x3c047fe1	0.008087129
164	0xbd013b7d	-0.031550873
165	0x3c68f929	0.014219561
166	0x38be5028	9.074836e-05
167	0x3c8d6379	0.017259346
168	0xbe815d83	-0.25266656
169	0xbe25d437	-0.16194235
170	0x3ea62be5	0.32455364
171	0x3e746ffe	0.23870847
172	0x3dd0b6e4	0.101911336
173	0x3efdd171	0.49573854
174	0x3e1819cf	0.14853595
175	0x3eb5dda4	0.3552066
176	0xbd448a12	-0.047983237
177	0x3de81245	0.1133161
178	0xbf029032	-0.51001275
179	0x3f7c643a	0.98590434
180	0x3df2889e	0.11842464
181	0x3ea029f7	0.31282017
182	0xbf4eb2c9	-0.80741554
183	0x3f42df9e	0.7612246
184	0xbf8e4577	-1.1114949
185	0x3caceb96	0.02110843
186	0x3bedee27	0.007261056
187	0xbd608d9c	-0.05482255
188	0x3d236837	0.03989431
189	0xbc1d98c4	-0.009618942
190	0xbde7da59	-0.113209434
191	0xbca114e6	-0.019663285
192	0xbe0f7984	-0.14011198
193	0x3c9af1b2	0.018914077
194	0x3fb0a9a1	1.3801767
195	0xbe5f9daa	-0.21837488
196	0x3e243e04	0.16039282
197	0x3e932615	0.28739992
198	0x3e6ac9a5	0.22928484
199	0xbdc47922	-0.09593417
200	0xbcc3a2e7	-0.023881389
201	0xbc640bc1	-0.013918818
202	0xbd9134eb	-0.070901714
203	0x3ddbbd92	0.10729517
204	0x3eecbbcb	0.46237025
205	0x3e8b9d6d	0.27268544
206	0xbc98d35d	-0.018655473
207	0x3e991797	0.2990081
208	0xbdec5a33	-0.11540642
209	0x3ce41efb	0.027846804
210	0xbd107d6e	-0.03527587
211	0x3cd36eb7	0.025809629
212	0xbdfb3bf3	-0.12267294
213	0xbc92c500	-0.017916203
214	0x3decae12	0.11556639
215	0x3d87eb04	0.066366225
216	0x3e3da9a7	0.18521748
217	0xbe43d0b9	-0.1912259
218	0xbe87f2fb	-0.26552567
219	0x3e96d099	0.29456022
220	0xbe7746ad	-0.24148054
221	0x3e885eb1	0.26634744
222	0xbe686a70	-0.22696853
223	0x3aef0743	0.0018236417
224	0x3e6275c6	0.2211524
225	0xbe309bb7	-0.172469
226	0xbbc8ec7d	-0.006131707
227	0x3e5e444c	0.2170574
228	0x3d852ed3	0.06503072
229	0x3f019387	0.50615734
230	0xbe999b49	-0.30001286
231	0x3e8f2246	0.27955836
232	0x3f861092	1.0473807
233	0xbda3ad82	-0.07992078
234	0xbdd4ae84	-0.10384849
235	0x3cb653b3	0.022256708
236	0x3ddf3608	0.108989775
237	0xbb1481b7	-0.0022660324
238	0x3d497fda	0.049194194
239	0xbdee54ca	-0.11637266
240	0xbeb59ad5	-0.3546969
241	0x3d61861a	0.05505953
242	0x3ee0da88	0.43916726
243	0xbe25e174	-0.16199285
244	0xbe67be73	-0.22631244
245	0xbd6ee355	-0.05832227
246	0xbbd54321	-0.0065082465
247	0xbd4f266d	-0.050573755
248	0xbb28226b	-0.002565528
249	0xbc7c6dec	-0.015407067
250	0x3e5ad1a0	0.21369028
251	0x3e61d124	0.22052437
252	0xbdce8bfb	-0.10085293
253	0x3f025406	0.5090946
254	0xbcac59b5	-0.02103887
255	0x3fb0a9dc	1.3801837

bias f4 [512]
0	0x3e317a18	0.17331731
1	0xbdfdc2d0	-0.12390673
2	0x3e02ec0e	0.1278536
3	0x3e0673f1	0.13130166
4	0x3cc78779	0.02435659
5	0xbe079d18	-0.1324352
6	0x3e00c0e7	0.12573586
7	0xbd89e04a	-0.06732233
8	0xbe48abaa	-0.19596735
9	0x3e81abb9	0.25326326
10	0x3e84cedb	0.25939068
11	0x3ca76e95	0.020438472
12	0xbe20bc69	-0.15696873
13	0x3d8131ed	0.06308351
14	0x3e1c3f0d	0.15258427
15	0x3e7fdece	0.24987337
16	0xbba07b16	-0.0048974855
17	0xbba7db27	-0.0051225605
18	0x3e4df18d	0.20111676
19	0xbd9fff72	-0.07812394
20	0x3e36ddb8	0.17858016
21	0x3d8d457c	0.06898019
22	0xbcbb4a05	-0.022862444
23	0xbddcf357	-0.10788601
24	0xbeb0f179	-0.3455923
25	0xbe8cdb14	-0.27510893
26	0xbe750d45	-0.23930843
27	0x3da7c284	0.08191398
28	0xbe2e7b0b	-0.17039125
29	0xbe8e2766	-0.27764434
30	0xbe9071ef	-0.28211924
31	0xbe5db1ce	-0.21649858
32	0x3dc369a1	0.095416315
33	0xbe4a9dff	-0.19786833
34	0xbd62b7e6	-0.05535116
35	0xbe99cacd	-0.30037537
36	0x3d981549	0.07425935
37	0x3bc5002e	0.0060119843
38	0x3da53d74	0.08068362
39	0x3d9c086e	0.07618795
40	0xbd9b8ab5	-0.07594816
41	0xbc8b631d	-0.017015034
42	0xbdb4b37b	-0.08823296
43	0xbc9151e5	-0.017739246
44	0x3ea088cc	0.31354368
45	0xbe7e0fc9	-0.24810709
46	0xbedbefa3	-0.42956266
47	0xbe2f71ae	-0.17133209
48	0x3e03bfbb	0.12866108
49	0x3d52b1fa	0.051439263
50	0x3d99c827	0.07508879
51	0x3e742447	0.23841964
52	0xbe7040da	-0.23462239
53	0x3e97c880	0.29645157
54	0x3d8cc83e	0.06874131
55	0x3e10174b	0.14071386
56	0x3edae7c5	0.4275495
57	0xbe9aa68b	-0.30205187
58	0x3e5aca4c	0.21366233
59	0xbcf047ae	-0.029331055
60	0x3d88feec	0.066892475
61	0xbeb655bb	-0.35612282
62	0x3e8842da	0.26613504
63	0xbd77f683	-0.060537826
64	0xbe005c8d	-0.12535305
65	0xbd699600	-0.057027817
66	0xbe70bff1	-0.2351072
67	0xbd6e6f74	-0.05821176
68	0x3dc69eeb	0.0969828
69	0x3dde3e59	0.108517356
70	0xbc877b92	-0.016538415
71	0xbde692d2	-0.112584725
72	0xbe51f9c4	-0.20505434
73	0x3d61ea48	0.05515507
74	0xbd17f887	-0.03710225
75	0x3d9628d8	0.07332009
76	0x3ea9fa56	0.33198804
77	0xbe285d58	-0.16441858
78	0x3d9c1f1a	0.0762312
79	0x3e58a413	0.2115634
80	0xbe01e6f8	-0.12685764
81	0xbe67ed0d	-0.22649021
82	0xbe0b0d24	-0.13579232
83	0xbdddf0d7	-0.10836952
84	0x3e262558	0.16225183
85	0x3e5dff1e	0.2167935
86	0xbddf7d8f	-0.1091262
87	0xbda7915e	-0.081820235
88	0x3dc19c9b	0.09453698
89	0x3caca6f7	0.021075709
90	0xbe451430	-0.19245982
91	0xbc815d65	-0.015791604
92	0xbe77de29	-0.24205841
93	0x3e8e6f0a	0.2781909
94	0x3d3f3e52	0.046690293
95	0x3e20016b	0.15625541
96	0xbea8efd1	-0.32995465
97	0x3e8570f3	0.26062736
98	0xbe00d275	-0.12580283
99	0x3e23217e	0.15930745
100	0xbd4b4da2	-0.049634583
101	0x3ddd9e79	0.10821242
102	0x3c3bfcdc	0.011473861
103	0xbe1376f3	-0.14400844
104	0x3ccc4e97	0.024939818
105	0xbe1efef3	-0.15526943
106	0x3a83dfda	0.001006122
107	0xbd62cd05	-0.055371303
108	0xbdc27d7e	-0.09496592
109	0x3d052745	0.032508153
110	0xbe78e270	-0.24305129
111	0xbd364f40	-0.044509172
112	0xbd46dd93	-0.048551153
113	0xbe0499ff	-0.1294937
114	0x3e6b822c	0.22998875
115	0xbdf984ea	-0.121835545
116	0x3eb94063	0.36181936
117	0x3e1cfe7c	0.15331453
118	0x3df8e422	0.12152888
119	0x3e294404	0.16529852
120	0xbd1c19d9	-0.038110588
121	0xbec51e4d	-0.3849968
122	0x3eb166d1	0.34648755
123	0x3e760be9	0.24027981
124	0x3e0d8af5	0.13822539
125	0xbd241d5d	-0.040067066
126	0xbc964f06	-0.018348228
127	0x3d7751d1	0.06038076
128	0x3d23dd36	0.040005885
129	0x3db6b266	0.089207456
130	0x3d72d80b	0.059288066
131	0xbbc84a86	-0.0061123995
132	0xbe879e74	-0.26488078
133	0x3e56c381	0.20973016
134	0xbea47c57	-0.32126114
135	0x3e9e2b5e	0.30892462
136	0xbe21f230	-0.15815043
137	0x3e0651db	0.13117163
138	0x3e8cf9fc	0.27534473
139	0x3eb93fbb	0.36181435
140	0x3caffe0a	0.02148344
141	0xbe6af80e	-0.22946188
142	0xbe602281	-0.21888162
143	0x3d905a72	0.07048501
144	0x3e681a09	0.22666182
145	0xbdd81b38	-0.105520666
146	0x3ddf6804	0.10908511
147	0xbc9190aa	-0.017769177
148	0xbd1551ac	-0.03645484
149	0xbd9ab30f	-0.07553684
150	0xbea69fc5	-0.3254377
151	0xbe2ccac9	-0.16874231
152	0x3d7aab7a	0.06119869
153	0x3e2c5c85	0.16832168
154	0xbdbfce15	-0.09365479
155	0xbdf69569	-0.120402165
156	0xbe824089	-0.2543986
157	0xbc32801f	-0.010894804
158	0xbe91f572	-0.28507572
159	0x3d29b8d2	0.041436024
160	0x3e573b69	0.21018757
161	0x3e1ee9ca	0.15518871
162	0xbeb7ad4e	-0.35874408
163	0xbe031dde	-0.12804362
164	0xbd636869	-0.055519495
165	0x3e89d11f	0.2691736
166	0x3e898260	0.2685728
167	0xbd6287e9	-0.055305395
168	0x3e29beaf	0.16576646
169	0x3e2cc243	0.1687098
170	0x3ecb4657	0.39702103
171	0xbc304de7	-0.010760761
172	0x3e97dfa7	0.2966282
173	0xbe1dabbb	-0.15397541
174	0xbe46c94e	-0.19412729
175	0x3d5f2c61	0.054485682
176	0xbdd5debf	-0.10442876
177	0x3e14e833	0.14541702
178	0x3e4c50b4	0.19952661
179	0xbddc742d	-0.10764346
180	0x3e80beb1	0.25145486
181	0x3b0efed5	0.0021819372
182	0x3b88cc92	0.0041747773
183	0x3e8274ad	0.25479642
184	0x3e81bd61	0.25339797
185	0x3e183200	0.14862823
186	0x3e9a988f	0.30194518
187	0x3dfe909c	0.12429926
188	0xbe2a0c8c	-0.16606349
189	0x3e66d162	0.2254081
190	0x3e91efb6	0.28503197
191	0xbe869663	-0.2628661
192	0xbe2c27cf	-0.16812061
193	0x3df456ad	0.119305946
194	0xbe4c0da0	-0.19927073
195	0xbc939188	-0.01801373
196	0x3e1c5a93	0.15268926
197	0xbe833f31	-0.2563415
198	0xbd921a60	-0.07133937
199	0xbd40dc2f	-0.047084983
200	0xbea0c819	-0.31402662
201	0x3ea05661	0.31315902
202	0xbe58b646	-0.21163282
203	0x3ee25469	0.44205025
204	0xbe028383	-0.1274548
205	0x3ea7fe4a	0.32811195
206	0xbb88c600	-0.004173994
207	0xbd47a8e0	-0.048745036
208	0xbd529822	-0.051414616
209	0x3e0ed5b2	0.13948706
210	0xbddeebf7	-0.108848505
211	0xbd8716d4	-0.06596151
212	0xbe1c1c1d	-0.152451
213	0xbd8d0e0a	-0.06887443
214	0x3d9e2982	0.07722761
215	0x3da73bfa	0.081657365
216	0xbda02b84	-0.078208
217	0xbe233d7c	-0.15941423
218	0x3e5bb774	0.214567
219	0xbed6ac7a	-0.41928464
220	0x38ffd79b	0.00012199507
221	0xbd854846	-0.06507926
222	0x3e610e0f	0.21978019
223	0x3ebac0a3	0.36475095
224	0xbe67cc06	-0.22636423
225	0x3e1f05c1	0.15529539
226	0xbe2a2a83	-0.1661778
227	0xbe8bd61a	-0.27311784
228	0x3d7786fe	0.060431473
229	0xbcb5a513	-0.02217344
230	0xbdef742a	-0.116920784
231	0x3e889614	0.26677
232	0x3e5fba58	0.21848428
233	0x3ce188b1	0.027531
234	0x3bed85e3	0.0072486266
235	0x3dd81889	0.10551555
236	0xbc911136	-0.017708402
237	0x3de3cf52	0.111235276
238	0x3e154f66	0.1458107
239	0x3c34a8b2	0.011026548
240	0xbd4c8f1e	-0.049941175
241	0x3d18244d	0.037143994
242	0xbcb55ec0	-0.022139907
243	0x3e38136c	0.17976159
244	0x3e813e7e	0.2524299
245	0xbccf41c6	-0.025299918
246	0x3ec59014	0.38586485
247	0xbe23f3a3	-0.16010909
248	0x3e848379	0.25881556
249	0xbe4249f2	-0.1897352
250	0xbcba6802	-0.022754673
251	0x3d2bf842	0.041984804
252	0xbe768d7e	-0.24077412
253	0x3e840377	0.25783893
254	0xbd0b46ef	-0.034003194
255	0xbeae36d9	-0.3402622

weight f4 [256, 512]
0	0xbcf3185a	-0.029674698
1	0x3c8330e4	0.016014524
2	0xbdf5b170	-0.11996734
3	0x3ddfb173	0.10922518
4	0xbd9f460c	-0.07777032
5	0xbdf274e9	-0.11838705
6	0x3e50965f	0.20369862
7	0x3dfd61de	0.12372182
8	0xbdf57fe3	-0.11987283
9	0xbd7eefec	-0.062240526
10	0x3d98af49	0.07455308
11	0x3e29a73b	0.165677
12	0xbc43a65e	-0.0119415205
13	0xbebd74ca	-0.37003165
14	0x3ea75f79	0.32690027
15	0xbe8394d9	-0.256995
16	0x3dd31ce9	0.103082485
17	0xbd88c5d1	-0.066783555
18	0xbe7d337c	-0.24726671
19	0xbea286f3	-0.31743583
20	0x3e3b4f33	0.18291931
21	0xbe5a58d3	-0.21322946
22	0x3cd577f7	0.02605818
23	0xbdec6a1b	-0.115436755
24	0x3e8e3078	0.27771354
25	0xbdb228f7	-0.0869922
26	0x3e1f98ad	0.15585585
27	0x3d318630	0.04334086
28	0x39f6e413	0.00047090705
29	0x3db3f4b8	0.08786911
30	0x3d97c818	0.07411212
31	0x3d9624a1	0.07331205
32	0x3d264813	0.04059608
33	0x3de19cfa	0.11016269
34	0x3d498053	0.049194645
35	0x3eaac497	0.3335311
36	0x3e675977	0.22592722
37	0x3d9f66a9	0.07783253
38	0x3e25169e	0.16121909
39	0x3e894220	0.26808262
40	0x3d8acdc1	0.06777526
41	0x3dbb1480	0.091347694
42	0xba736434	-0.0009284646
43	0xbd2565c5	-0.040380258
44	0x3cd2f014	0.025749244
45	0x3e9b9d99	0.30393675
46	0x3f0e63d9	0.55621105
47	0x3dc101a5	0.09424142
48	0xbe764b78	-0.24052227
49	0xbe3e038d	-0.18556042
50	0x3d8ec989	0.069720335
51	0x3e29644e	0.1654217
52	0x3db4175b	0.08793517
53	0xbe259be7	-0.16172753
54	0xbebb2383	-0.3655053
55	0x3d9dbc98	0.07701987
56	0xbda7ccba	-0.08193345
57	0xbdc1ae01	-0.09457017
58	0x3d970d7d	0.073756196
59	0xbb86daa0	-0.0041154176
60	0x3d87f3a3	0.06638267
61	0x3de03b8c	0.10948858
62	0x3d6db47a	0.058033444
63	0xbde19ffc	-0.11016843
64	0xbe30ca47	-0.17264663
65	0xbd0baca4	-0.03410019
66	0xbe9af272	-0.30263096
67	0xbea3bb01	-0.3197861
68	0x3ec15494	0.3775984
69	0xbd4b34ec	-0.049611017
70	0x3e6a59f3	0.22885875
71	0xbe82b44b	-0.25528178
72	0x3d4682f9	0.04846475
73	0x3e1f3532	0.15547636
74	0x3dd52147	0.10406738
75	0x3e070aa3	0.13187651
76	0x3d7af63f	0.061269995
77	0xbdafc665	-0.08582763
78	0xbea90a60	-0.33015728
79	0x3d147c93	0.036251616
80	0x3e0cf775	0.13766272
81	0xbb8e96ca	-0.0043514716
82	0x3d70ef99	0.058822248
83	0x3e5f0f97	0.21783291
84	0xbc9f0f13	-0.019416368
85	0x3e37288c	0.17886561
86	0x3d334740	0.04376912
87	0xbe414324	-0.18873268
88	0xbded6518	-0.11591548
89	0xbd6d18c7	-0.057884958
90	0x3eb4c14d	0.35303727
91	0xbde5dc14	-0.11223617
92	0xbdb1f9fd	-0.086902596
93	0xbc12d63d	-0.008962211
94	0xbdc8b711	-0.09800542
95	0xbdd25b9e	-0.10271381
96	0x3d2626bb	0.04056428
97	0xbe23ed18	-0.16008413
98	0xbe48f9cb	-0.19626538
99	0x3de6cb41	0.11269236
100	0x3ecb4e83	0.39708337
101	0xbe8dd614	-0.2770239
102	0xbe0974be	-0.1342344
103	0x3eb68770	0.35650206
104	0xbc2a1702	-0.010381462
105	0x3e351007	0.17681895
106	0xbd90d6da	-0.0707223
107	0xbda1a91d	-0.07893584
108	0xbd71b424	-0.059009686
109	0xbebe9acf	-0.37227485
110	0xbdb7659c	-0.08954927
111	0xbe007e0d	-0.12548085
112	0x3dca51fe	0.0987892
113	0xbdb32006	-0.08746342
114	0xbf0d98f5	-0.5531152
115	0xbc8e7931	-0.017391773
116	0xbe46af93	-0.19402914
117	0xbb875da0	-0.004131034
118	0xbdb52dfb	-0.08846661
119	0xbcbf4b6a	-0.02335139
120	0xbd319465	-0.04335441
121	0x3d09bb03	0.033625614
122	0xbe0c5d5a	-0.13707486
123	0x3de000bb	0.10937639
124	0x3d161c6d	0.036648203
125	0x3d045c91	0.03231484
126	0x3ecda2ec	0.40163362
127	0xbe118799	-0.14211883
128	0xbca62326	-0.020280432
129	0x3e299561	0.1656089
130	0x3c0374f2	0.008023487
131	0x3e22a8c7	0.15884696
132	0x3e593e67	0.21215211
133	0xbdcce051	-0.100037225
134	0xbd4f4002	-0.050598152
135	0x3c38df2a	0.011283675
136	0x3d99215f	0.07477068
137	0x3ef7fd9b	0.48435673
138	0xbd9c9709	-0.07645995
139	0xbdd09f4e	-0.10186635
140	0x3e277c21	0.16355945
141	0x3e358a7b	0.17728607
142	0xbdc2149f	-0.094765894
143	0xbe353e80	-0.17699623
144	0xbdfffa9a	-0.1249897
145	0x3e1f2858	0.15542734
146	0xbe0ab02b	-0.13543765
147	0x3ca9a971	0.020710679
148	0x38a4cd3c	7.858357e-05
149	0xbd1e4795	-0.038642485
150	0xbe0a503f	-0.13507174
151	0xbeba003e	-0.3632831
152	0x3ec43a0c	0.38325536
153	0x3e283e3e	0.16429994
154	0x3e14cead	0.14531966
155	0xbd4ce380	-0.05002165
156	0xbdeef2f0	-0.116674304
157	0xbd64a6ec	-0.05582325
158	0x3dfb196e	0.1226071
159	0xbd9d4738	-0.076795995
160	0x3cd5bccb	0.026091
161	0xbe25d694	-0.16195136
162	0x3da6e230	0.081486106
163	0x3e227931	0.15866543
164	0xbdd70d9c	-0.10500643
165	0xbd50bf4b	-0.05096368
166	0xbe5c2a09	-0.2150041
167	0x3c9fdaaa	0.019513447
168	0xbe802bd2	-0.25033432
169	0xbdecbb1f	-0.11559128
170	0xbe442b75	-0.19157203
171	0x3e508552	0.20363358
172	0x3e74e1ca	0.23914257
173	0x3e7fea6f	0.24991773
174	0x3dbf810a	0.09350784
175	0xbecad40c	-0.39614904
176	0xbe299c60	-0.16563559
177	0xb9f9202c	-0.0004751695
178	0xbe0433b8	-0.12910354
179	0xbe6466bf	-0.2230482
180	0x3db6da61	0.08928371
181	0xbe1dc54e	-0.15407297
182	0xbe033586	-0.12813386
183	0xbec4c0f5	-0.38428465
184	0xbd395d96	-0.045255266
185	0x3c9762c1	0.018479707
186	0xbed8eca0	-0.4236803
187	0xbe0bd8f6	-0.13656983
188	0x3eabde1d	0.33567896
189	0xbe8d7e25	-0.27635303
190	0xbe2b7756	-0.16744742
191	0xbd8ebfdd	-0.06970189
192	0x3e305c2a	0.17222658
193	0x3dff69ec	0.12471375
194	0x3e196c4d	0.1498272
195	0xbd96c0ef	-0.07361018
196	0xbdb75f83	-0.08953764
197	0x3da5e8f6	0.081010744
198	0x3d0c40e6	0.03424158
199	0xbd7c6b13	-0.06162555
200	0x3d0a8e08	0.033826858
201	0xbe2071c5	-0.156684
202	0x3baabd3a	0.005210546
203	0xbe21a461	-0.15785362
204	0x3d4ccb82	0.049998768
205	0xbe530301	-0.20606615
206	0xbdfb2659	-0.122631736
207	0xbd30a6ab	-0.043127697
208	0x3d20b893	0.039238524
209	0x3da4bb49	0.08043534
210	0xbe0adf3f	-0.13561724
211	0x3d25ce56	0.04047998
212	0xbc542161	-0.012947411
213	0xbe9f3d49	-0.31101444
214	0x3e929bbc	0.2863444
215	0x3e1d0706	0.1533471
216	0xbe282dcd	-0.16423722
217	0x3ca1852e	0.019716825
218	0x3d2e1acf	0.042506035
219	0xbc936c6a	-0.017996032
220	0xbd2d1d39	-0.042264197
221	0x3d3dd649	0.046346936
222	0x3e85e7d5	0.26153436
223	0xbddbc871	-0.107315905
224	0x3e397fd5	0.1811517
225	0xbe7b96cd	-0.24569245
226	0x3d392cca	0.04520873
227	0x38b61d71	8.68392e-05
228	0x3e9c6678	0.30546927
229	0xbc6cfb7d	-0.014464256
230	0x3e60c943	0.21951775
231	0xbdaf43ac	-0.08557829
232	0x3a6fd312	0.00091485784
233	0xbc09e417	-0.008416197
234	0xbdd7574e	-0.10514699
235	0x3d8a7abb	0.0676169
236	0x3e1f4b61	0.15556099
237	0x3d09c7b0	0.033637702
238	0x3e323175	0.17401679
239	0x3c0af2f1	0.008480773
240	0x3ec9367a	0.39299375
241	0xbded2ddb	-0.11581012
242	0xbe2abb84	-0.16673094
243	0x3e8da9c2	0.27668577
244	0x3d201e01	0.039091114
245	0xbe0de785	-0.13857849
246	0xbe59f619	-0.21285285
247	0xbdda807c	-0.10669038
248	0xbec18c81	-0.37802508
249	0xbe86cb04	-0.26326764
250	0x3c9eef43	0.019401198
251	0xbe89c9f2	-0.26911885
252	0xbd624b19	-0.0552474
253	0xbe0b4a98	-0.13602674
254	0xbeaf875a	-0.34282953
255	0x3e074435	0.13209613

bias f4 [256]
0	0xbe4287c0	-0.18997097
1	0xbe85952e	-0.26090378
2	0xbde26f10	-0.1105634
3	0xbe2f7b21	-0.17136814
4	0xbe42cfac	-0.19024533
5	0xbd2946ae	-0.04132717
6	0xbe38b5ab	-0.18038051
7	0xbe35cf46	-0.1775485
8	0xbeb0a5ec	-0.34501588
9	0xbe5e6ac9	-0.21720423
10	0xbd95686e	-0.07295309
11	0xbe9d8cba	-0.30771428
12	0xbe83271d	-0.2561578
13	0xbeaeb5da	-0.34123117
14	0xbedc92f5	-0.4308087
15	0xbe298b14	-0.1655696
16	0xbe74db73	-0.23911838
17	0xbdd5f0d4	-0.10446325
18	0xbeaa1950	-0.33222437
19	0x3c5ea2ec	0.013588648
20	0xbe628f02	-0.22124866
21	0xbe1383bc	-0.14405721
22	0xbe919d14	-0.28440154
23	0xbdd30d00	-0.10305214
24	0xbe480f71	-0.1953714
25	0x3cd4a446	0.025957238
26	0xbe5e2a50	-0.21695828
27	0xbd5d7594	-0.05406721
28	0xbc92b359	-0.017907785
29	0xbea1bf9d	-0.31591502
30	0xbeeb19e4	-0.4591819
31	0xbe0c615b	-0.13709013
32	0xbe204d75	-0.15654548
33	0xbe0022fe	-0.12513348
34	0xbdb73f05	-0.08947567
35	0xbe6efcb0	-0.2333858
36	0xbe3b198d	-0.18271466
37	0x3c8cf829	0.017208176
38	0xbe7a391b	-0.24435847
39	0xbe572c2e	-0.21012947
40	0xbdbbc21a	-0.09167881
41	0x3d947a65	0.072499074
42	0xbdf749f2	-0.12074651
43	0xbe8ffa13	-0.2812048
44	0xbe25c173	-0.16187076
45	0xbe94914a	-0.29017097
46	0xbefe02cd	-0.49611512
47	0xbee9080c	-0.45513952
48	0xbe86ca24	-0.26326096
49	0xbdc1edae	-0.09469162
50	0xbeec7571	-0.4618335
51	0xbe2203df	-0.15821789
52	0xbe724707	-0.23659907
53	0x3e32bc4b	0.1745464
54	0xbe0af920	-0.13571596
55	0xbe8bac34	-0.27279818
56	0xbedb6722	-0.42852122
57	0xbe3a5d20	-0.18199587
58	0xbe18fd55	-0.14940389
59	0xbe04708e	-0.12933561
60	0xbd4dc11f	-0.050233003
61	0xbe580aaf	-0.21097825
62	0xbdf27e22	-0.11840464
63	0xbe6b5c74	-0.22984487
64	0xbe8dc654	-0.27690375
65	0xbe80f6b9	-0.25188234
66	0xbe988bfd	-0.29794303
67	0xbeb378ba	-0.35053045
68	0xbe62cab2	-0.22147635
69	0xbe0a3992	-0.13498524
70	0xbe3c7861	-0.18405296
71	0xbd86f8c1	-0.06590415
72	0xbed060c4	-0.40698826
73	0xbe300969	-0.1719109
74	0x3bec5b54	0.0072130356
75	0x3cb0afc9	0.021568196
76	0xbe6c97c7	-0.23104773
77	0x3cfda40c	0.030962013
78	0xbb79e4a9	-0.0038130677
79	0x3c535357	0.012898288
80	0xbe898ef3	-0.26866874
81	0xbe6fecae	-0.2343013
82	0xbea9ff19	-0.33202437
83	0xbe52e4d8	-0.2059511
84	0xbe8dcdbf	-0.27696034
85	0xbe169f33	-0.14709167
86	0xbe6659f7	-0.22495256
87	0xbea9208b	-0.3303264
88	0xbd359bb6	-0.04433795
89	0xbe047bb8	-0.1293782
90	0xbe70c244	-0.23511606
91	0xbe42ce16	-0.19023928
92	0xbe7342f8	-0.23756015
93	0xbe346b47	-0.17619048
94	0xbe73e942	-0.2381945
95	0xbea12f75	-0.3148152
96	0xbe631743	-0.22176842
97	0xbdf9c3d6	-0.12195556
98	0xbe45b1ee	-0.19306156
99	0xbdbfe6eb	-0.09370216
100	0xbdeed177	-0.11661046
101	0xbe206670	-0.15664077
102	0xbe842929	-0.25812653
103	0xbc8f8d84	-0.017523535
104	0xbe7c72d0	-0.24653172
105	0xbe91359d	-0.28361216
106	0xbe50a423	-0.20375113
107	0xbe78cf84	-0.24297911
108	0xbe74381f	-0.23849533
109	0xbea6e3cc	-0.3259567
110	0x3d6c8eaa	0.057753243
111	0xbd11b032	-0.035568424
112	0xbe3996b1	-0.1812389
113	0xbe91131a	-0.28334886
114	0xbeda40a9	-0.42627457
115	0xbe660d3a	-0.22465983
116	0xbedd90ab	-0.43274435
117	0x3cc93fa8	0.024566486
118	0xbd059af1	-0.032618467
119	0xbe405c01	-0.18785097
120	0xbeaec577	-0.3413503
121	0xbe5a3e65	-0.21312864
122	0xbd5aba65	-0.053400416
123	0xbe91151d	-0.2833642
124	0xbec1e374	-0.37868845
125	0xbdca0873	-0.09864893
126	0xbe623e26	-0.2209402
127	0xbef71e88	-0.4826548
128	0x3ca26e59	0.019828008
129	0xbebbf21d	-0.36708155
130	0xbe9b2b86	-0.30306643
131	0xbead90dc	-0.3389958
132	0xbe782af3	-0.24235134
133	0xbbd15da3	-0.006389336
134	0xbdf09ef7	-0.1174907
135	0xbe243fae	-0.16039917
136	0xbe39e2df	-0.1815295
137	0x3d9512d3	0.07278981
138	0xbec73528	-0.38907743
139	0xbe17d4c4	-0.14827257
140	0xbe664b89	-0.22489752
141	0xbe12b04e	-0.14325067
142	0xbde59ba9	-0.112113304
143	0xbe8d7471	-0.276279
144	0xbe6817cd	-0.2266533
145	0xbddc4f01	-0.10757256
146	0xbeb038bd	-0.34418288
147	0xbdf3b346	-0.11899428
148	0xbe5a1c42	-0.21299842
149	0xbe90cda2	-0.28281885
150	0xbea47d0f	-0.32126662
151	0xbe4066c7	-0.18789206
152	0x3dfbb575	0.122904696
153	0xbe99c638	-0.3003404
154	0xbe2a3e77	-0.16625391
155	0xbec24588	-0.37943673
156	0xbe4997bd	-0.1968679
157	0xbd86c153	-0.065798424
158	0x3d91541c	0.07096121
159	0xbe2a25e1	-0.16616012
160	0xbde160b4	-0.11004773
161	0xbc6ec7f5	-0.014574041
162	0x3c43454d	0.011918378
163	0xbde3ead9	-0.11128778
164	0xbd1f3dbf	-0.038877245
165	0xbea852c5	-0.32875648
166	0xbe6c34b8	-0.23066986
167	0xbe15c31c	-0.1462521
168	0xbe774ccb	-0.24150388
169	0xbe3f7d35	-0.18700106
170	0xbdf7cfa1	-0.12100149
171	0xbe527e18	-0.20555913
172	0xbeb0d631	-0.34538415
173	0xbd667918	-0.056267828
174	0xbe9f065e	-0.31059545
175	0xbb9e8d86	-0.0048386483
176	0xbd70be1a	-0.058775045
177	0xbee86e8a	-0.45396835
178	0xbeaefb5c	-0.34176147
179	0xbe19c4f2	-0.15016535
180	0xbe6390d3	-0.22223215
181	0xbe0f814d	-0.14014168
182	0xbcd0f87b	-0.02550911
183	0xbe8d8781	-0.27642444
184	0xbda8f09f	-0.0824902
185	0xbee6a854	-0.450503
186	0xbedb8063	-0.4287139
187	0xbe4d756e	-0.20064327
188	0x3d60e760	0.054908156
189	0xbe77e320	-0.24207735
190	0x3e2bd39d	0.16779943
191	0xbe1e1e5d	-0.1544127
192	0xbe1bd622	-0.15218404
193	0xbedfdbb7	-0.43722317
194	0xbde5c6a5	-0.11219529
195	0xbe8d0647	-0.27543852
196	0xbe1e3d9d	-0.15453191
197	0xbe71c3a7	-0.23609792
198	0xbe093cca	-0.13402095
199	0xbe6a43cd	-0.22877426
200	0xbe76b309	-0.24091734
201	0xbe7c8e6e	-0.24663708
202	0xbd99b405	-0.07505039
203	0xbe658446	-0.2241374
204	0xbe365337	-0.17805181
205	0xbe3db659	-0.18526591
206	0xbc0456d3	-0.008077341
207	0x3d5d43f4	0.054019883
208	0xbe8ae2f7	-0.27126285
209	0xbdbb3440	-0.09140825
210	0xbdd39adf	-0.10332274
211	0x3d3bdd3f	0.045865294
212	0xbe622aef	-0.2208669
213	0xbe395e2d	-0.18102331
214	0xbe384e07	-0.17998515
215	0xbdb10caa	-0.086449936
216	0xbeafe42c	-0.3435377
217	0xbe11369b	-0.14180987
218	0xbe94ab07	-0.29036734
219	0xbe2d90db	-0.16949789
220	0xbeff30c9	-0.49841908
221	0xbeddde3f	-0.43333623
222	0xbd9f0cca	-0.07766111
223	0xbd440d5d	-0.047864307
224	0x3d980549	0.07422883
225	0xbe477d85	-0.19481476
226	0x3dfd275a	0.12361021
227	0x3e31a4a2	0.17347959
228	0xbe8610b9	-0.26184633
229	0xbdce14b1	-0.1006254
230	0xbe83d0f1	-0.25745347
231	0xbe9cd426	-0.30630606
232	0xbeaece94	-0.34141982
233	0xbdfe78ff	-0.12425422
234	0xbe008d8b	-0.12553994
235	0xbd2a92f0	-0.041644037
236	0xbeab6034	-0.33471835
237	0xbe8b3b14	-0.2719351
238	0xbea464c2	-0.32108122
239	0xbe906da6	-0.28208655
240	0xbe58842f	-0.21144174
241	0xbe59f29d	-0.21283956
242	0xbe868ee8	-0.26280904
243	0xbe69c2fa	-0.22828284
244	0xbeb8da29	-0.36103943
245	0xbe6b1622	-0.22957662
246	0xbe640961	-0.22269203
247	0xbdf5a06b	-0.11993488
248	0xbe08febb	-0.13378422
249	0xbe8385e5	-0.2568809
250	0xbe74843e	-0.23878571
251	0xbe570916	-0.2099956
252	0xbe5864b7	-0.2113217
253	0xbe8b8d8b	-0.27256426
254	0xbe42e0dd	-0.19031091
255	0xbdebb8d6	-0.11509864

weight f4 [128, 256]
0	0xbe0117dd	-0.1260676
1	0x3e5660f9	0.2093543
2	0x3d8b801e	0.06811546
3	0x3e48c384	0.19605833
4	0x3df6af01	0.12045098
5	0x3e10a9b6	0.1412724
6	0xbe6c7a1f	-0.2309346
7	0x3d53a76c	0.051673338
8	0x3e8f90cd	0.28040162
9	0xbe589e4b	-0.21154134
10	0x3cbc9925	0.023022244
11	0xbe8807db	-0.26568493
12	0xbe6be71a	-0.23037377
13	0x3e3789c8	0.17923653
14	0xbde577c2	-0.112044826
15	0x3e05d2d0	0.130687
16	0x3e0100a9	0.12597908
17	0xbd5e10bf	-0.05421519
18	0xbe370263	-0.17872004
19	0xbe07f67c	-0.1327762
20	0x3be32a04	0.006932499
21	0x3e6d3b1c	0.2316708
22	0x3c0189fa	0.007906431
23	0xbd46232a	-0.04837338
24	0x3d5fec13	0.054668497
25	0xbe54bc72	-0.20775011
26	0xbd37dfad	-0.04489105
27	0x3e264035	0.1623543
28	0x3db5e335	0.08881227
29	0x3e61d310	0.2205317
30	0x3eac2e5a	0.33629113
31	0xbe5eef39	-0.21770944
32	0xbe13bca5	-0.14427431
33	0xbe21c3a4	-0.15797287
34	0xbddfdf9a	-0.109313205
35	0x3c5cc70a	0.013475189
36	0xbdfad937	-0.12248462
37	0xbebb0fdb	-0.36535534
38	0x3e83d34d	0.25747147
39	0xbca667ab	-0.020313105
40	0xbe90895e	-0.28229803
41	0x3dfcf480	0.12351322
42	0x3bef38b1	0.0073004593
43	0x3d3c0bcb	0.045909684
44	0x3c16ef6f	0.009212359
45	0xbe480708	-0.19533932
46	0xbcf02b2c	-0.029317461
47	0xbdab4a96	-0.083638355
48	0x3d6c38b5	0.057671268
49	0xbef2786f	-0.4735751
50	0x3d94fad7	0.072744064
51	0x3d5abf64	0.05340518
52	0x3c425bf5	0.011862745
53	0xbe7aa513	-0.24477033
54	0xbe7bd606	-0.24593362
55	0xbebdaa7f	-0.3704414
56	0xbcc0fc3d	-0.023557777
57	0x3dc67353	0.09689965
58	0xbeb233ca	-0.34805137
59	0xbe98f3c0	-0.29873466
60	0xbe3c2032	-0.18371657
61	0xbe08e836	-0.13369831
62	0x3e80212f	0.25025317
63	0xbdb16369	-0.08661539
64	0x3dbaaac6	0.09114604
65	0xbd81e25d	-0.063420035
66	0x3bd5b2aa	0.0065215426
67	0xbce15736	-0.027507406
68	0xbdfa74bc	-0.122292966
69	0x3e6baa3b	0.23014157
70	0xbe88e9ed	-0.2674097
71	0xbd583377	-0.052783456
72	0xbd4db8b7	-0.050224986
73	0x3e0ebcc0	0.1393919
74	0x3ddbce02	0.10732652
75	0x3e9d959b	0.30778202
76	0xbe4ba901	-0.19888689
77	0xbe173c6e	-0.14769146
78	0x3a0198fc	0.0004943756
79	0xbe3db22b	-0.18524997
80	0x3d4b6613	0.049657892
81	0xbe404fa4	-0.1878038
82	0xbe19a20c	-0.15003222
83	0xbdbfef30	-0.09371793
84	0xbb7dcc30	-0.0038726442
85	0xbc77be82	-0.015121104
86	0xbcca3e2d	-0.02468785
87	0x3dfdd3c6	0.12393908
88	0xbdacb75e	-0.08433412
89	0xbe380a86	-0.17972764
90	0xbe6f434b	-0.23365514
91	0xbbc5147b	-0.0060144044
92	0x3ed37c2e	0.4130568
93	0xbe829874	-0.25506938
94	0xbcd4fb64	-0.025998779
95	0xbe13ec32	-0.1444557
96	0x3e2b9a83	0.1675816
97	0xbeb01aa8	-0.34395337
98	0xbe66e1d7	-0.22547089
99	0xbde4ee0b	-0.111782156
100	0x3e0198b1	0.12655903
101	0xbe0b2ca7	-0.13591252
102	0xbec6d2f0	-0.38832808
103	0x3ddc26b3	0.10749569
104	0xbe11de30	-0.14244914
105	0x3d9a541d	0.075355746
106	0xbe310251	-0.1728604
107	0xbe0e0597	-0.1386932
108	0xbd94c44a	-0.07264002
109	0xbe0f73c3	-0.14009003
110	0xbd55ff29	-0.052245293
111	0x3d0215ae	0.031758957
112	0x3e547074	0.20746022
113	0x3eb7d666	0.3590576
114	0xbe41ecbd	-0.18937965
115	0x3cbc27a3	0.022968119
116	0xbd602668	-0.054724127
117	0x3ea271cf	0.31727454
118	0x3c3640b0	0.011123821
119	0xbda02941	-0.078203686
120	0xbd36ca2f	-0.04462641
121	0xbbc220e5	-0.0059243315
122	0x3d20308b	0.039108794
123	0x3d0ffba1	0.03515208
124	0x3d2113d2	0.039325543
125	0x3e83f856	0.25775403
126	0x3e5733f4	0.21015912
127	0xbd8130ca	-0.06308134
128	0xbd2ea87b	-0.042641144
129	0x3daffbb6	0.08592932
130	0xbe7fbeef	-0.24975179
131	0xbddb703f	-0.107147686
132	0xbe130a43	-0.14359383
133	0x3e2131a2	0.1574159
134	0xbdae3bae	-0.08507477
135	0xbe809657	-0.251147
136	0xbe35c9b5	-0.17752726
137	0xbc4b6498	-0.01241412
138	0x3e5ab119	0.2135662
139	0x3de407bf	0.1113429
140	0xbbb93f10	-0.0056532696
141	0x3d964864	0.07338026
142	0xbe886fa0	-0.26647663
143	0x3d801c03	0.06255343
144	0x3a8c9d14	0.0010727965
145	0x3e537b7b	0.20652573
146	0x3e1bc90a	0.15213409
147	0xbe2eee42	-0.17083076
148	0x3d3833d9	0.04497132
149	0x3da2b756	0.07945125
150	0xbc4c81b9	-0.0124821
151	0xbe976ded	-0.29576054
152	0xbe06e3c8	-0.13172829
153	0xbd80e9b0	-0.06294572
154	0x3ea2ac11	0.317719
155	0xbe19a0b2	-0.15002707
156	0xbd087d2a	-0.03332249
157	0xbe638414	-0.22218353
158	0x3da35979	0.0797605
159	0xbe8aa475	-0.27078596
160	0x3cd19907	0.025585664
161	0xbe8560a8	-0.26050305
162	0xbeaa6b5b	-0.3328503
163	0xbdf94774	-0.12171832
164	0xbdd86014	-0.105652004
165	0x3de86cfe	0.113489136
166	0xbd8ad23c	-0.0677838
167	0x3e4cc2bd	0.19996162
168	0xbe520f0f	-0.20513557
169	0xbcb43619	-0.021998452
170	0xbde8a93a	-0.113604024
171	0xbe24e88c	-0.16104335
172	0xbc2e0285	-0.010620718
173	0xbe1a966d	-0.15096445
174	0x3e5cade1	0.21550705
175	0x3e1c82b1	0.1528423
176	0xbe912636	-0.28349465
177	0xbe3ca934	-0.18423921
178	0xbe9d422f	-0.30714557
179	0xbe8b24fc	-0.27176654
180	0x3e48a256	0.19593176
181	0xbda5c33b	-0.08093878
182	0x3e970503	0.2949601
183	0xbe72f7ae	-0.23727295
184	0xbe607950	-0.21921277
185	0x3d957239	0.07297177
186	0x3e508185	0.20361908
187	0x3c0f1bc1	0.008734644
188	0xbec1d21f	-0.37855622
189	0x3c7120a4	0.014717255
190	0x3e0098a8	0.12558234
191	0xbdf7f4a2	-0.12107207
192	0x3e07afdb	0.13250677
193	0x3dea7a16	0.11449067
194	0xbe83fc8f	-0.25778624
195	0xbe2ef4d7	-0.17085586
196	0x3e970917	0.29499123
197	0x3d96bcf9	0.073602624
198	0x3e31aa34	0.17350084
199	0x3eec8499	0.46194914
200	0xbd33c1b0	-0.043885887
201	0xbe601010	-0.21881127
202	0x3dd4c809	0.10389716
203	0xbe09406b	-0.1340348
204	0xbe89f574	-0.26945078
205	0xbe716280	-0.23572731
206	0x3d47b7b5	0.04875918
207	0x3d66a915	0.056313593
208	0x3df34d26	0.11879949
209	0x3e1583df	0.14601086
210	0x3d62b254	0.05534585
211	0x3e0a4c2b	0.13505618
212	0x3d179002	0.03700257
213	0x3e3d6850	0.18496823
214	0x3e9e8bc0	0.30965996
215	0xbd93a14b	-0.072084986
216	0xbd69b103	-0.057053577
217	0xbed17a49	-0.4091361
218	0xbe94db8c	-0.2907375
219	0x3db4ccf2	0.08828153
220	0xbd91267c	-0.070874184
221	0x3e0a2200	0.13489532
222	0xbe6bbc5a	-0.23021069
223	0xbd706150	-0.058686554
224	0xbe0bc772	-0.13650301
225	0x3d7d6986	0.061868213
226	0xbe64ee2a	-0.22356477
227	0x3e257214	0.16156799
228	0x3e84d0f0	0.25940657
229	0x3dd45925	0.103685655
230	0x3c337909	0.01095415
231	0xbe095282	-0.1341038
232	0x3da8520f	0.082187764
233	0xbe298a98	-0.16556776
234	0xbd80f617	-0.06296938
235	0xbd056ccf	-0.03257447
236	0xbe0e358b	-0.13887613
237	0xbc896a4e	-0.016774323
238	0x3ce89a85	0.028393993
239	0x3d8bcc30	0.06826055
240	0xbebba61a	-0.36650163
241	0x3df820ba	0.12115617
242	0xbe0b8c2f	-0.13627695
243	0x3ca87b30	0.020566553
244	0x3c7c378c	0.015394103
245	0x3ebf7659	0.3739498
246	0x3d085ad3	0.03328974
247	0xbee212e7	-0.44155046
248	0x3d9803bd	0.07422588
249	0x3d35dccd	0.044400025
250	0xbeb59f28	-0.3547299
251	0xbe889b78	-0.26681113
252	0xbd1f4b26	-0.038890027
253	0x3c738be6	0.014864897
254	0xbd8beb6b	-0.06832012
255	0xbdeb99e9	-0.115039654

bias f4 [128]
0	0xbd9a1b56	-0.07524745
1	0xbd903de4	-0.07043055
2	0xbe31cc6a	-0.17363134
3	0xbe77c3e5	-0.24195822
4	0xbd96ca52	-0.07362808
5	0xbe8abcbf	-0.27097127
6	0xbdc1b9fa	-0.094593
7	0xbe4a40e9	-0.19751324
8	0xbe28dbed	-0.16490145
9	0xbee51c54	-0.44748175
10	0xbdcb2d1e	-0.09920715
11	0xbd9530e6	-0.07284717
12	0xbdb65892	-0.08903612
13	0xbd1cf34a	-0.038317956
14	0xbd4fab2f	-0.050700363
15	0xbe1df2f3	-0.15424709
16	0xbd0d191b	-0.03444777
17	0xbe271839	-0.16317834
18	0xbe23c564	-0.15993267
19	0xbec09ce0	-0.37619686
20	0xbe82a312	-0.25515038
21	0xbe3bf5b1	-0.18355443
22	0xbe51aee7	-0.20476876
23	0xbde5183c	-0.11186263
24	0xbe65adfd	-0.22429653
25	0xbd36c413	-0.044620585
26	0xbe18166b	-0.14852302
27	0xbe4e9677	-0.20174585
28	0xbe4503cb	-0.19239728
29	0xbe3c2a89	-0.18375601
30	0xbe9c03a6	-0.30471534
31	0xbe02223d	-0.12708373
32	0xbe32aa5f	-0.17447804
33	0x3df4e357	0.11957424
34	0xbd15b8d2	-0.03655321
35	0xbdc789df	-0.09743094
36	0xbe209fbc	-0.15685934
37	0xbd0f4ef0	-0.03498739
38	0xbdf46db7	-0.11934989
39	0xbe14d0b7	-0.14532743
40	0xbe9fc6f4	-0.31206477
41	0xbeed5b17	-0.4635856
42	0xbdc8c064	-0.098023206
43	0x3d0a1337	0.03370973
44	0xbd38e454	-0.045139626
45	0xbe668092	-0.22509983
46	0xbe502dfa	-0.20330039
47	0xbcd239a7	-0.025662256
48	0xbe10c00f	-0.14135765
49	0xbe049858	-0.1294874
50	0xbd910230	-0.07080495
51	0xbe01c824	-0.12674004
52	0xbd5b3762	-0.053519614
53	0xbe520bad	-0.20512266
54	0x3d480047	0.04882839
55	0xbe39d0b8	-0.18146026
56	0xbe3c5c32	-0.18394545
57	0xbcd6da2e	-0.026227083
58	0xbe3e1f58	-0.18566644
59	0xbcdc13a6	-0.026864838
60	0xbe88693a	-0.26642781
61	0xbe3badb3	-0.1832798
62	0xbdd22fb1	-0.10263003
63	0xbe40bbbc	-0.18821615
64	0x3b058f4e	0.0020379606
65	0xbe5399f9	-0.20664205
66	0xbd4dda05	-0.050256748
67	0x3d5365be	0.0516107
68	0xbe1aed75	-0.15129645
69	0xbe741030	-0.238343
70	0xbeba02fa	-0.36330396
71	0xbd8bf731	-0.068342574
72	0xbed68110	-0.41895342
73	0xbdf52124	-0.11969212
74	0xbe1ffb6f	-0.15623258
75	0xbe6d379a	-0.23165742
76	0xbdbe2837	-0.09285014
77	0xbec48486	-0.38382357
78	0xbe199125	-0.14996774
79	0xbe9a7b99	-0.30172423
80	0xbde44b38	-0.11147159
81	0xbe79ae63	-0.2438293
82	0xbe20d7af	-0.15707277
83	0xbe354164	-0.17700726
84	0xbd8b5007	-0.068023734
85	0xbeeaa5b5	-0.4582955
86	0xbe499e9f	-0.19689415
87	0xbdd30ed7	-0.10305565
88	0xbe80034c	-0.25002515
89	0xbe2c3bd6	-0.168197
90	0xbcfd3e94	-0.030913629
91	0xbe8e3d29	-0.27781036
92	0x3ceca8ed	0.028889144
93	0xbdb41aca	-0.08794172
94	0xbe576ee4	-0.21038395
95	0xbeb3d73e	-0.35125154
96	0xbdac5166	-0.08413963
97	0xbd17f58f	-0.037099417
98	0xbe279a8b	-0.16367547
99	0xbe1528fd	-0.14566417
100	0xbe6a37d6	-0.22872862
101	0xbe692d9f	-0.2277131
102	0xbe1e5e3b	-0.15465634
103	0xbe75440f	-0.23951744
104	0xbf079b84	-0.52971673
105	0xbe4ad95d	-0.1980948
106	0xbdce7293	-0.10080447
107	0xbea7a806	-0.3274538
108	0xbdc072f3	-0.09396925
109	0xbea373a7	-0.31924173
110	0xbe45c929	-0.19315018
111	0x3dc5d0d7	0.09658974
112	0xbe2f48a2	-0.17117551
113	0xbec02b05	-0.3753282
114	0xbeaecf32	-0.34142452
115	0x3d9dd167	0.07705956
116	0xbe0d7a02	-0.13816074
117	0xbe4b8316	-0.19874224
118	0xbe1edddf	-0.15514325
119	0xbe56739c	-0.20942539
120	0xbe05d1bc	-0.13068289
121	0xbdf67748	-0.1203447
122	0xbd9322a1	-0.07184339
123	0xbdd33cc9	-0.10314328
124	0xbdebbd58	-0.11510724
125	0xbebb2ddc	-0.36558425
126	0xbe867fd8	-0.26269412
127	0xbe9e2904	-0.30890667

weight f4 [7, 128]
0	0xbd69887f	-0.05701494
1	0x3e7d34ef	0.24727224
2	0x3b7abbdc	0.0038258946
3	0xbddedec5	-0.10882334
4	0xbd982203	-0.07428362
5	0x3aef3641	0.0018250422
6	0xbdd0f311	-0.10202611
7	0x3e098b2d	0.13431998
8	0xbd970574	-0.07374087
9	0xbb9d1e6b	-0.004794886
10	0xbe2cdc5a	-0.16880932
11	0x3d202b34	0.0391037
12	0xbe1b4f84	-0.15167052
13	0x3daa7d40	0.08324671
14	0xbd9c3729	-0.076277085
15	0xbc4b084a	-0.012392113
16	0x3cefd844	0.029277928
17	0x3e14f8b0	0.14547992
18	0x3ebec571	0.3726001
19	0xbcd09789	-0.025462883
20	0x3d450681	0.048101906
21	0x3d40f5d4	0.04710944
22	0x3df13d2b	0.11779245
23	0xbd51fa0e	-0.05126386
24	0x3e11ea9f	0.14249657
25	0xbd999a0e	-0.07500087
26	0x3dc8d204	0.09805682
27	0x3ccace83	0.024756676
28	0xbe3444eb	-0.17604415
29	0x3e491667	0.19637452
30	0x3db31b74	0.08745471
31	0x3c4cba1c	0.012495544
32	0x3cc39d90	0.023878843
33	0x3da490e3	0.080354474
34	0x3d98d086	0.07461648
35	0x3e7f7050	0.24945188
36	0xbd811b9f	-0.063040964
37	0xbd3d8553	-0.046269726
38	0xbcbc7aad	-0.023007715
39	0x3e5e754c	0.21724433
40	0x3f415e9a	0.75534976
41	0x3ef32196	0.47486562
42	0x3dc08409	0.09400184
43	0x3c867231	0.016411873
44	0xbe1aec4a	-0.151292
45	0x3d0b7bb9	0.034053538
46	0xbf08a1db	-0.5337197
47	0x3cdd9a96	0.027051251
48	0x3d067f7c	0.032836422
49	0x3e405232	0.18781355
50	0xbc955a09	-0.018231409
51	0xbd10f6bf	-0.035391565
52	0x3cd9f895	0.026607791
53	0xbc8779ff	-0.016537664
54	0x3cbbceaa	0.022925694
55	0xbc18d846	-0.009328907
56	0xbdc586ae	-0.09644829
57	0x3e420208	0.18946087
58	0x3e39bcec	0.18138474
59	0x3dcdd623	0.10050609
60	0xbdcf8db3	-0.10134449
61	0x3ddda817	0.10823076
62	0xbe24924b	-0.16071431
63	0x3d1f3305	0.038867015
64	0xbdee7a54	-0.11644426
65	0x3d7dd7d0	0.061973393
66	0xbe1a76bb	-0.15084355
67	0xbe031daf	-0.12804292
68	0xbe085853	-0.13314943
69	0xbe80a8b7	-0.2512872
70	0xbdfadf97	-0.12249678
71	0xbdd08dda	-0.10183306
72	0x3deec04d	0.11657772
73	0x3d5ad271	0.05342335
74	0xbe326e53	-0.17424898
75	0x3da3378e	0.079695806
76	0x3d2c80e0	0.042115092
77	0xbcc41fc5	-0.02394093
78	0xbd8d5cef	-0.06902491
79	0x3c4bb042	0.01243216
80	0xbda7657e	-0.08173655
81	0x3d8ce523	0.06879642
82	0x3d66398b	0.05620722
83	0xbd6e4abf	-0.058176752
84	0x3e19267e	0.1495609
85	0x3e25f95f	0.16208409
86	0x3d6c6183	0.057710182
87	0xbcf330dc	-0.029686384
88	0x3d151cb8	0.03640434
89	0x3b0fa32a	0.0021917322
90	0xbdb9d2e0	-0.09073424
91	0x3dbde984	0.09273055
92	0xbc42275d	-0.011850205
93	0xbde397b1	-0.11112917
94	0xbe15a1e3	-0.14612536
95	0x3db41281	0.08792592
96	0x3d746d04	0.059674278
97	0xbe3ba57a	-0.18324843
98	0x3d2b2f07	0.041792896
99	0xbea04221	-0.31300452
100	0xbd85a868	-0.065262616
101	0xbe262cfd	-0.16228099
102	0xbe728869	-0.23684849
103	0xbe06d736	-0.13168034
104	0x3cd2d13a	0.025734533
105	0x3d5a7b73	0.053340387
106	0x3bc4098d	0.005982584
107	0x3d920116	0.071291134
108	0xbe016d37	-0.12639318
109	0x3e8fcfea	0.28088313
110	0x3e6b5187	0.22980319
111	0x3e5bdd0a	0.21471038
112	0xbe355587	-0.17708407
113	0x3d981fb7	0.07427924
114	0xbda588ad	-0.080827095
115	0x3d147b6e	0.036250524
116	0xbd692747	-0.056922223
117	0xbe27b58c	-0.16377848
118	0xbd13861a	-0.03601656
119	0x3df544ed	0.11976037
120	0xbcc68b97	-0.024236483
121	0x3dca2ac7	0.098714404
122	0xbdb16885	-0.08662514
123	0x3e052cec	0.13005418
124	0xbd5ded4d	-0.054181386
125	0x3eb59512	0.35465294
126	0xbeed2696	-0.463185
127	0xbad0cc63	-0.0015930053
128	0x3d3d7b5f	0.046260234
129	0xbda50578	-0.08057684
130	0xbe0ecf04	-0.13946158
131	0x3e2c64ba	0.16835299
132	0x3d848653	0.06470933
133	0x3dc3bf62	0.09557988
134	0x3c985213	0.018593824
135	0xbd0eeb87	-0.034892585
136	0xbcdd9544	-0.027048714
137	0xbe0888c2	-0.13333419
138	0x3b9f1efe	0.0048559895
139	0x3d8b1c51	0.0679251
140	0x3e70b65d	0.23507066
141	0xbdb03c0f	-0.08605205
142	0xbcd3e5b6	-0.02586637
143	0xbe5a25ef	-0.21303533
144	0xbe714fca	-0.23565593
145	0xbdb66650	-0.08906233
146	0xbe2b297d	-0.16715045
147	0x3cc75381	0.02433181
148	0xbd80bc86	-0.06285958
149	0xbcf9a831	-0.030475708
150	0xbe957d8a	-0.2919734
151	0xbe3919e9	-0.1807629
152	0xbcc66383	-0.024217373
153	0xbe4d63b8	-0.20057571
154	0x3d1d37e9	0.0383834
155	0x3d1d3648	0.038381845
156	0xbdc87497	-0.09787863
157	0x3c7b06da	0.015321458
158	0xbcae42fb	-0.021272173
159	0xbe0f129f	-0.13971947
160	0x3d2e3c59	0.04253802
161	0xbd28841c	-0.041141614
162	0xbdec4bd4	-0.115379006
163	0x3cd4ae19	0.025961922
164	0x3e3dcbb6	0.18534741
165	0xbec0a5cb	-0.3762649
166	0xbdfb3989	-0.12266833
167	0x3ddd093c	0.10792777
168	0x3e2903e0	0.16505384
169	0x3e3a4ebf	0.18194102
170	0xbd21258b	-0.039342444
171	0xbdde59b4	-0.10856953
172	0xbe0849bb	-0.13309376
173	0x3e27b69b	0.16378252
174	0x3e4d6dfb	0.20061485
175	0xbe6bdab9	-0.23032655
176	0x3d95b57b	0.07310005
177	0x3d5e247d	0.054234017
178	0x3bcb0d0a	0.0061966227
179	0xbe7e6e3c	-0.24846739
180	0xbcee0e54	-0.029059567
181	0x3d213afe	0.0393629
182	0xbdc2d91e	-0.09514068
183	0x3ca1c0ed	0.019745314
184	0x3c39cec4	0.011340801
185	0x3d54ff5f	0.052001353
186	0x3cc7a07e	0.02436852
187	0xbcb371ad	-0.02190479
188	0xbd9a22c1	-0.0752616
189	0xbc1c071c	-0.009523179
190	0x3d022512	0.031773634
191	0x3e1f8e50	0.15581632
192	0xbd33472a	-0.04376904
193	0x3d15ca25	0.036569733
194	0xbc46ace5	-0.012126182
195	0xbd2aa2d8	-0.041659206
196	0xbdf90ea7	-0.12160998
197	0xbc7ef7a5	-0.015561973
198	0x3e86f295	0.2635695
199	0x3e819549	0.25309208
200	0x3e6046ca	0.21902004
201	0xbe033bfa	-0.12815848
202	0xbdeda983	-0.116045974
203	0xbae86e8d	-0.0017733142
204	0x3db72d45	0.08944181
205	0x3edf9d35	0.43674627
206	0x3da63eca	0.08117445
207	0x3c8101be	0.015747901
208	0xbcb83886	-0.02248789
209	0xbe2765d6	-0.16347441
210	0x3d6385b0	0.055547416
211	0x3e713db9	0.23558702
212	0xbe008fff	-0.1255493
213	0x3d99203c	0.07476851
214	0xbe1ca94c	-0.15298957
215	0x3c8ceada	0.01720183
216	0xbe19e833	-0.15029983
217	0x3c925c4f	0.017866282
218	0xbdc0fb1d	-0.09422896
219	0xbdcdf2c0	-0.100560665
220	0x3d1f6c48	0.038921624
221	0xbd0f9643	-0.03505541
222	0xbcc72958	-0.024311706
223	0xbdfc1024	-0.12307766
224	0xbd38a7e0	-0.045081973
225	0xbd1eb6b2	-0.03874845
226	0xbd55db2b	-0.052210968
227	0xbd8cefb0	-0.06881654
228	0xbe916939	-0.2840059
229	0xbdfe8727	-0.12428122
230	0x3cceb498	0.025232598
231	0x3cbd2da0	0.023093045
232	0x3dc938ec	0.0982531
233	0xbceb288c	-0.028705858
234	0xbbd54384	-0.0065082926
235	0xbd4716a7	-0.048605587
236	0x3e0817f3	0.13290386
237	0x3e98584c	0.29754865
238	0xbd9f975d	-0.07792542
239	0xbe80883f	-0.25103948
240	0x3b539b20	0.0032288507
241	0xbee51f85	-0.4475061
242	0xbe551b1b	-0.20811121
243	0x3ce552e9	0.027993636
244	0x3c0a6184	0.008446101
245	0x3d9e3bc2	0.07726242
246	0x3d9092d8	0.07059258
247	0x3d804bd0	0.0626446
248	0x3e247f96	0.16064295
249	0xbcc03096	-0.023460668
250	0xbe79284c	-0.24331778
251	0x3b8a9d01	0.004230142
252	0xbdd5b7c6	-0.104354426
253	0x3ee7779f	0.4520845
254	0xbd5e6031	-0.054290954
255	0x3e06e96b	0.1317498

bias f4 [7]
0	0xbe9e099d	-0.3086671
1	0xbe5230a2	-0.20526364
2	0xbd837dc0	-0.06420469
3	0x3eb1b80a	0.34710723
4	0x3db7f9e5	0.089832105
5	0xbdf6871a	-0.12037487
6	0xbe1a9def	-0.1509931
